<?xml version="1.0"?>
<net name="Model0" version="11">
	<layers>
		<layer id="0" name="vl_embs" type="Parameter" version="opset1">
			<data shape="?,?,?" element_type="f32" />
			<output>
				<port id="0" precision="FP32" names="vl_embs">
					<dim>-1</dim>
					<dim>-1</dim>
					<dim>-1</dim>
				</port>
			</output>
		</layer>
		<layer id="1" name="initial_noise" type="Parameter" version="opset1">
			<data shape="?,?,?" element_type="f32" />
			<output>
				<port id="0" precision="FP32" names="initial_noise">
					<dim>-1</dim>
					<dim>-1</dim>
					<dim>-1</dim>
				</port>
			</output>
		</layer>
		<layer id="2" name="state" type="Parameter" version="opset1">
			<data shape="?,?,?" element_type="f32" />
			<output>
				<port id="0" precision="FP32" names="state">
					<dim>-1</dim>
					<dim>-1</dim>
					<dim>-1</dim>
				</port>
			</output>
		</layer>
		<layer id="3" name="self.action_model.state_encoder.layer1.weight_compressed" type="Const" version="opset1">
			<data element_type="f16" shape="1024, 8" offset="0" size="16384" />
			<output>
				<port id="0" precision="FP16" names="self.action_model.state_encoder.layer1.weight">
					<dim>1024</dim>
					<dim>8</dim>
				</port>
			</output>
		</layer>
		<layer id="4" name="self.action_model.state_encoder.layer1.weight" type="Convert" version="opset1">
			<data destination_type="f32" />
			<rt_info>
				<attribute name="decompression" version="0" />
			</rt_info>
			<input>
				<port id="0" precision="FP16">
					<dim>1024</dim>
					<dim>8</dim>
				</port>
			</input>
			<output>
				<port id="1" precision="FP32">
					<dim>1024</dim>
					<dim>8</dim>
				</port>
			</output>
		</layer>
		<layer id="5" name="__module.action_model.state_encoder.layer1/aten::linear/MatMul" type="MatMul" version="opset1">
			<data transpose_a="false" transpose_b="true" />
			<input>
				<port id="0" precision="FP32">
					<dim>-1</dim>
					<dim>-1</dim>
					<dim>-1</dim>
				</port>
				<port id="1" precision="FP32">
					<dim>1024</dim>
					<dim>8</dim>
				</port>
			</input>
			<output>
				<port id="2" precision="FP32">
					<dim>-1</dim>
					<dim>-1</dim>
					<dim>1024</dim>
				</port>
			</output>
		</layer>
		<layer id="6" name="Constant_110709_compressed" type="Const" version="opset1">
			<data element_type="f16" shape="1, 1, 1024" offset="16384" size="2048" />
			<output>
				<port id="0" precision="FP16">
					<dim>1</dim>
					<dim>1</dim>
					<dim>1024</dim>
				</port>
			</output>
		</layer>
		<layer id="7" name="Constant_110709" type="Convert" version="opset1">
			<data destination_type="f32" />
			<rt_info>
				<attribute name="decompression" version="0" />
			</rt_info>
			<input>
				<port id="0" precision="FP16">
					<dim>1</dim>
					<dim>1</dim>
					<dim>1024</dim>
				</port>
			</input>
			<output>
				<port id="1" precision="FP32">
					<dim>1</dim>
					<dim>1</dim>
					<dim>1024</dim>
				</port>
			</output>
		</layer>
		<layer id="8" name="__module.action_model.state_encoder.layer1/aten::linear/Add" type="Add" version="opset1">
			<data auto_broadcast="numpy" />
			<input>
				<port id="0" precision="FP32">
					<dim>-1</dim>
					<dim>-1</dim>
					<dim>1024</dim>
				</port>
				<port id="1" precision="FP32">
					<dim>1</dim>
					<dim>1</dim>
					<dim>1024</dim>
				</port>
			</input>
			<output>
				<port id="2" precision="FP32" names="2021,3627,415,5233,input.1103,input.371,input.5,input.737">
					<dim>-1</dim>
					<dim>-1</dim>
					<dim>1024</dim>
				</port>
			</output>
		</layer>
		<layer id="9" name="__module.action_model.state_encoder/aten::relu/Relu" type="ReLU" version="opset1">
			<input>
				<port id="0" precision="FP32">
					<dim>-1</dim>
					<dim>-1</dim>
					<dim>1024</dim>
				</port>
			</input>
			<output>
				<port id="1" precision="FP32" names="2022,3628,416,5234,input.1105,input.373,input.7,input.739">
					<dim>-1</dim>
					<dim>-1</dim>
					<dim>1024</dim>
				</port>
			</output>
		</layer>
		<layer id="10" name="self.action_model.state_encoder.layer2.weight_compressed" type="Const" version="opset1">
			<data element_type="f16" shape="1536, 1024" offset="18432" size="3145728" />
			<output>
				<port id="0" precision="FP16" names="self.action_model.state_encoder.layer2.weight">
					<dim>1536</dim>
					<dim>1024</dim>
				</port>
			</output>
		</layer>
		<layer id="11" name="self.action_model.state_encoder.layer2.weight" type="Convert" version="opset1">
			<data destination_type="f32" />
			<rt_info>
				<attribute name="decompression" version="0" />
			</rt_info>
			<input>
				<port id="0" precision="FP16">
					<dim>1536</dim>
					<dim>1024</dim>
				</port>
			</input>
			<output>
				<port id="1" precision="FP32">
					<dim>1536</dim>
					<dim>1024</dim>
				</port>
			</output>
		</layer>
		<layer id="12" name="__module.action_model.state_encoder.layer2/aten::linear/MatMul" type="MatMul" version="opset1">
			<data transpose_a="false" transpose_b="true" />
			<input>
				<port id="0" precision="FP32">
					<dim>-1</dim>
					<dim>-1</dim>
					<dim>1024</dim>
				</port>
				<port id="1" precision="FP32">
					<dim>1536</dim>
					<dim>1024</dim>
				</port>
			</input>
			<output>
				<port id="2" precision="FP32">
					<dim>-1</dim>
					<dim>-1</dim>
					<dim>1536</dim>
				</port>
			</output>
		</layer>
		<layer id="13" name="Constant_110710_compressed" type="Const" version="opset1">
			<data element_type="f16" shape="1, 1, 1536" offset="3164160" size="3072" />
			<output>
				<port id="0" precision="FP16">
					<dim>1</dim>
					<dim>1</dim>
					<dim>1536</dim>
				</port>
			</output>
		</layer>
		<layer id="14" name="Constant_110710" type="Convert" version="opset1">
			<data destination_type="f32" />
			<rt_info>
				<attribute name="decompression" version="0" />
			</rt_info>
			<input>
				<port id="0" precision="FP16">
					<dim>1</dim>
					<dim>1</dim>
					<dim>1536</dim>
				</port>
			</input>
			<output>
				<port id="1" precision="FP32">
					<dim>1</dim>
					<dim>1</dim>
					<dim>1536</dim>
				</port>
			</output>
		</layer>
		<layer id="15" name="__module.action_model.state_encoder.layer2/aten::linear/Add" type="Add" version="opset1">
			<data auto_broadcast="numpy" />
			<input>
				<port id="0" precision="FP32">
					<dim>-1</dim>
					<dim>-1</dim>
					<dim>1536</dim>
				</port>
				<port id="1" precision="FP32">
					<dim>1</dim>
					<dim>1</dim>
					<dim>1536</dim>
				</port>
			</input>
			<output>
				<port id="2" precision="FP32" names="2025,3631,419,5237,state_features,state_features.1,state_features.3,state_features.5">
					<dim>-1</dim>
					<dim>-1</dim>
					<dim>1536</dim>
				</port>
			</output>
		</layer>
		<layer id="16" name="aten::unsqueeze/Unsqueeze_compressed" type="Const" version="opset1">
			<data element_type="f16" shape="1, 32, 1536" offset="3167232" size="98304" />
			<output>
				<port id="0" precision="FP16" names="161,247,333,75">
					<dim>1</dim>
					<dim>32</dim>
					<dim>1536</dim>
				</port>
			</output>
		</layer>
		<layer id="17" name="aten::unsqueeze/Unsqueeze" type="Convert" version="opset1">
			<data destination_type="f32" />
			<rt_info>
				<attribute name="decompression" version="0" />
			</rt_info>
			<input>
				<port id="0" precision="FP16">
					<dim>1</dim>
					<dim>32</dim>
					<dim>1536</dim>
				</port>
			</input>
			<output>
				<port id="1" precision="FP32">
					<dim>1</dim>
					<dim>32</dim>
					<dim>1536</dim>
				</port>
			</output>
		</layer>
		<layer id="18" name="ShapeOf_116160" type="ShapeOf" version="opset3">
			<data output_type="i64" />
			<input>
				<port id="0" precision="FP32">
					<dim>-1</dim>
					<dim>-1</dim>
					<dim>-1</dim>
				</port>
			</input>
			<output>
				<port id="1" precision="I64">
					<dim>3</dim>
				</port>
			</output>
		</layer>
		<layer id="19" name="Constant_116161" type="Const" version="opset1">
			<data element_type="i64" shape="1" offset="3265536" size="8" />
			<rt_info>
				<attribute name="precise" version="0" />
			</rt_info>
			<output>
				<port id="0" precision="I64">
					<dim>1</dim>
				</port>
			</output>
		</layer>
		<layer id="20" name="Constant_116162" type="Const" version="opset1">
			<data element_type="i64" shape="" offset="3265536" size="8" />
			<rt_info>
				<attribute name="precise" version="0" />
			</rt_info>
			<output>
				<port id="0" precision="I64" />
			</output>
		</layer>
		<layer id="21" name="Gather_116163" type="Gather" version="opset8">
			<data batch_dims="0" />
			<input>
				<port id="0" precision="I64">
					<dim>3</dim>
				</port>
				<port id="1" precision="I64">
					<dim>1</dim>
				</port>
				<port id="2" precision="I64" />
			</input>
			<output>
				<port id="3" precision="I64" names="1082,1171,1260,1349,1438,1527,1616,163,165,1705,1794,18,1883,20,21,2154,22,2243,23,2332,2421,249,251,2510,2599,2688,2777,2866,2955,3044,3133,3222,3311,335,337,3400,3489,3760,3849,3938,4027,4116,4205,4294,4383,4472,4561,4650,4739,4828,4917,5006,5095,5366,5455,548,5544,5633,5722,5811,5900,5989,6078,6167,6256,6345,637,6434,6523,6612,6701,726,77,79,815,904,993">
					<dim>1</dim>
				</port>
			</output>
		</layer>
		<layer id="22" name="Constant_84897" type="Const" version="opset1">
			<data element_type="i64" shape="1" offset="3265544" size="8" />
			<rt_info>
				<attribute name="precise" version="0" />
			</rt_info>
			<output>
				<port id="0" precision="I64">
					<dim>1</dim>
				</port>
			</output>
		</layer>
		<layer id="23" name="Constant_84899" type="Const" version="opset1">
			<data element_type="i64" shape="1" offset="3265544" size="8" />
			<rt_info>
				<attribute name="precise" version="0" />
			</rt_info>
			<output>
				<port id="0" precision="I64">
					<dim>1</dim>
				</port>
			</output>
		</layer>
		<layer id="24" name="prim::ListConstruct/SequenceMark" type="Concat" version="opset1">
			<data axis="0" />
			<input>
				<port id="0" precision="I64">
					<dim>1</dim>
				</port>
				<port id="1" precision="I64">
					<dim>1</dim>
				</port>
				<port id="2" precision="I64">
					<dim>1</dim>
				</port>
			</input>
			<output>
				<port id="3" precision="I64">
					<dim>3</dim>
				</port>
			</output>
		</layer>
		<layer id="25" name="aten::expand/Broadcast" type="Broadcast" version="opset3">
			<data mode="bidirectional" />
			<input>
				<port id="0" precision="FP32">
					<dim>1</dim>
					<dim>32</dim>
					<dim>1536</dim>
				</port>
				<port id="1" precision="I64">
					<dim>3</dim>
				</port>
			</input>
			<output>
				<port id="2" precision="FP32" names="170,256,342,84,future_tokens.1,future_tokens.3,future_tokens.5,future_tokens.7">
					<dim>-1</dim>
					<dim>32</dim>
					<dim>1536</dim>
				</port>
			</output>
		</layer>
		<layer id="26" name="self.action_model.action_encoder.layer1.weight_compressed" type="Const" version="opset1">
			<data element_type="f16" shape="1536, 7" offset="3265552" size="21504" />
			<output>
				<port id="0" precision="FP16" names="self.action_model.action_encoder.layer1.weight">
					<dim>1536</dim>
					<dim>7</dim>
				</port>
			</output>
		</layer>
		<layer id="27" name="self.action_model.action_encoder.layer1.weight" type="Convert" version="opset1">
			<data destination_type="f32" />
			<rt_info>
				<attribute name="decompression" version="0" />
			</rt_info>
			<input>
				<port id="0" precision="FP16">
					<dim>1536</dim>
					<dim>7</dim>
				</port>
			</input>
			<output>
				<port id="1" precision="FP32">
					<dim>1536</dim>
					<dim>7</dim>
				</port>
			</output>
		</layer>
		<layer id="28" name="__module.action_model.action_encoder.layer1/aten::linear/MatMul" type="MatMul" version="opset1">
			<data transpose_a="false" transpose_b="true" />
			<input>
				<port id="0" precision="FP32">
					<dim>-1</dim>
					<dim>-1</dim>
					<dim>-1</dim>
				</port>
				<port id="1" precision="FP32">
					<dim>1536</dim>
					<dim>7</dim>
				</port>
			</input>
			<output>
				<port id="2" precision="FP32">
					<dim>-1</dim>
					<dim>-1</dim>
					<dim>1536</dim>
				</port>
			</output>
		</layer>
		<layer id="29" name="Constant_110711_compressed" type="Const" version="opset1">
			<data element_type="f16" shape="1, 1, 1536" offset="3287056" size="3072" />
			<output>
				<port id="0" precision="FP16">
					<dim>1</dim>
					<dim>1</dim>
					<dim>1536</dim>
				</port>
			</output>
		</layer>
		<layer id="30" name="Constant_110711" type="Convert" version="opset1">
			<data destination_type="f32" />
			<rt_info>
				<attribute name="decompression" version="0" />
			</rt_info>
			<input>
				<port id="0" precision="FP16">
					<dim>1</dim>
					<dim>1</dim>
					<dim>1536</dim>
				</port>
			</input>
			<output>
				<port id="1" precision="FP32">
					<dim>1</dim>
					<dim>1</dim>
					<dim>1536</dim>
				</port>
			</output>
		</layer>
		<layer id="31" name="__module.action_model.action_encoder.layer1/aten::linear/Add" type="Add" version="opset1">
			<data auto_broadcast="numpy" />
			<input>
				<port id="0" precision="FP32">
					<dim>-1</dim>
					<dim>-1</dim>
					<dim>1536</dim>
				</port>
				<port id="1" precision="FP32">
					<dim>1</dim>
					<dim>1</dim>
					<dim>1536</dim>
				</port>
			</input>
			<output>
				<port id="2" precision="FP32" names="384,a_emb.1">
					<dim>-1</dim>
					<dim>-1</dim>
					<dim>1536</dim>
				</port>
			</output>
		</layer>
		<layer id="32" name="aten::full/Convert_compressed" type="Const" version="opset1">
			<data element_type="f16" shape="" offset="3290128" size="2" />
			<output>
				<port id="0" precision="FP16" />
			</output>
		</layer>
		<layer id="33" name="aten::full/Convert" type="Convert" version="opset1">
			<data destination_type="f32" />
			<rt_info>
				<attribute name="decompression" version="0" />
			</rt_info>
			<input>
				<port id="0" precision="FP16" />
			</input>
			<output>
				<port id="1" precision="FP32" />
			</output>
		</layer>
		<layer id="34" name="aten::full/Broadcast" type="Broadcast" version="opset3">
			<data mode="numpy" />
			<input>
				<port id="0" precision="FP32" />
				<port id="1" precision="I64">
					<dim>1</dim>
				</port>
			</input>
			<output>
				<port id="2" precision="FP32" names="30,35,t.1">
					<dim>-1</dim>
				</port>
			</output>
		</layer>
		<layer id="35" name="36" type="Const" version="opset1">
			<data element_type="i64" shape="" offset="3265544" size="8" />
			<output>
				<port id="0" precision="I64" names="36" />
			</output>
		</layer>
		<layer id="36" name="aten::unsqueeze/Unsqueeze_1" type="Unsqueeze" version="opset1">
			<input>
				<port id="0" precision="FP32">
					<dim>-1</dim>
				</port>
				<port id="1" precision="I64" />
			</input>
			<output>
				<port id="2" precision="FP32" names="37">
					<dim>-1</dim>
					<dim>1</dim>
				</port>
			</output>
		</layer>
		<layer id="37" name="38" type="Const" version="opset1">
			<data element_type="i64" shape="" offset="3290130" size="8" />
			<output>
				<port id="0" precision="I64" names="38" />
			</output>
		</layer>
		<layer id="38" name="aten::unsqueeze/Unsqueeze_2" type="Unsqueeze" version="opset1">
			<input>
				<port id="0" precision="FP32">
					<dim>-1</dim>
					<dim>1</dim>
				</port>
				<port id="1" precision="I64" />
			</input>
			<output>
				<port id="2" precision="FP32" names="39,44,t.3">
					<dim>-1</dim>
					<dim>1</dim>
					<dim>1</dim>
				</port>
			</output>
		</layer>
		<layer id="39" name="46" type="Const" version="opset1">
			<data element_type="i64" shape="" offset="3265536" size="8" />
			<output>
				<port id="0" precision="I64" names="46" />
			</output>
		</layer>
		<layer id="40" name="45" type="Const" version="opset1">
			<data element_type="i64" shape="" offset="3265544" size="8" />
			<output>
				<port id="0" precision="I64" names="45" />
			</output>
		</layer>
		<layer id="41" name="aten::select/Gather" type="Gather" version="opset8">
			<data batch_dims="0" />
			<input>
				<port id="0" precision="FP32">
					<dim>-1</dim>
					<dim>1</dim>
					<dim>1</dim>
				</port>
				<port id="1" precision="I64" />
				<port id="2" precision="I64" />
			</input>
			<output>
				<port id="3" precision="FP32" names="47">
					<dim>-1</dim>
					<dim>1</dim>
				</port>
			</output>
		</layer>
		<layer id="42" name="49" type="Const" version="opset1">
			<data element_type="i64" shape="" offset="3265536" size="8" />
			<output>
				<port id="0" precision="I64" names="49" />
			</output>
		</layer>
		<layer id="43" name="48" type="Const" version="opset1">
			<data element_type="i64" shape="" offset="3265544" size="8" />
			<output>
				<port id="0" precision="I64" names="48" />
			</output>
		</layer>
		<layer id="44" name="aten::select/Gather_1" type="Gather" version="opset8">
			<data batch_dims="0" />
			<input>
				<port id="0" precision="FP32">
					<dim>-1</dim>
					<dim>1</dim>
				</port>
				<port id="1" precision="I64" />
				<port id="2" precision="I64" />
			</input>
			<output>
				<port id="3" precision="FP32" names="50">
					<dim>-1</dim>
				</port>
			</output>
		</layer>
		<layer id="45" name="Constant_110712_compressed" type="Const" version="opset1">
			<data element_type="f16" shape="1" offset="3290138" size="2" />
			<output>
				<port id="0" precision="FP16">
					<dim>1</dim>
				</port>
			</output>
		</layer>
		<layer id="46" name="Constant_110712" type="Convert" version="opset1">
			<data destination_type="f32" />
			<rt_info>
				<attribute name="decompression" version="0" />
			</rt_info>
			<input>
				<port id="0" precision="FP16">
					<dim>1</dim>
				</port>
			</input>
			<output>
				<port id="1" precision="FP32">
					<dim>1</dim>
				</port>
			</output>
		</layer>
		<layer id="47" name="aten::mul/Multiply" type="Multiply" version="opset1">
			<data auto_broadcast="numpy" />
			<input>
				<port id="0" precision="FP32">
					<dim>-1</dim>
				</port>
				<port id="1" precision="FP32">
					<dim>1</dim>
				</port>
			</input>
			<output>
				<port id="2" precision="FP32" names="52">
					<dim>-1</dim>
				</port>
			</output>
		</layer>
		<layer id="48" name="aten::to/Convert" type="Convert" version="opset1">
			<data destination_type="i64" />
			<input>
				<port id="0" precision="FP32">
					<dim>-1</dim>
				</port>
			</input>
			<output>
				<port id="1" precision="I64" names="489,57,timesteps.1">
					<dim>-1</dim>
				</port>
			</output>
		</layer>
		<layer id="49" name="374" type="Const" version="opset1">
			<data element_type="i64" shape="" offset="3265544" size="8" />
			<output>
				<port id="0" precision="I64" names="374" />
			</output>
		</layer>
		<layer id="50" name="__module.action_model.action_encoder/aten::unsqueeze/Unsqueeze" type="Unsqueeze" version="opset1">
			<input>
				<port id="0" precision="I64">
					<dim>-1</dim>
				</port>
				<port id="1" precision="I64" />
			</input>
			<output>
				<port id="2" precision="I64" names="379,490">
					<dim>-1</dim>
					<dim>1</dim>
				</port>
			</output>
		</layer>
		<layer id="51" name="Constant_84904" type="Const" version="opset1">
			<data element_type="i64" shape="1" offset="3265544" size="8" />
			<rt_info>
				<attribute name="precise" version="0" />
			</rt_info>
			<output>
				<port id="0" precision="I64">
					<dim>1</dim>
				</port>
			</output>
		</layer>
		<layer id="52" name="ShapeOf_116166" type="ShapeOf" version="opset3">
			<data output_type="i64" />
			<input>
				<port id="0" precision="FP32">
					<dim>-1</dim>
					<dim>-1</dim>
					<dim>-1</dim>
				</port>
			</input>
			<output>
				<port id="1" precision="I64">
					<dim>3</dim>
				</port>
			</output>
		</layer>
		<layer id="53" name="Constant_116167" type="Const" version="opset1">
			<data element_type="i64" shape="" offset="3265544" size="8" />
			<rt_info>
				<attribute name="precise" version="0" />
			</rt_info>
			<output>
				<port id="0" precision="I64" />
			</output>
		</layer>
		<layer id="54" name="Constant_116168" type="Const" version="opset1">
			<data element_type="i64" shape="" offset="3265536" size="8" />
			<rt_info>
				<attribute name="precise" version="0" />
			</rt_info>
			<output>
				<port id="0" precision="I64" />
			</output>
		</layer>
		<layer id="55" name="Gather_116169" type="Gather" version="opset8">
			<data batch_dims="0" />
			<input>
				<port id="0" precision="I64">
					<dim>3</dim>
				</port>
				<port id="1" precision="I64" />
				<port id="2" precision="I64" />
			</input>
			<output>
				<port id="3" precision="I64" names="378,61,93" />
			</output>
		</layer>
		<layer id="56" name="Constant_116170" type="Const" version="opset1">
			<data element_type="i64" shape="1" offset="3265544" size="8" />
			<rt_info>
				<attribute name="precise" version="0" />
			</rt_info>
			<output>
				<port id="0" precision="I64">
					<dim>1</dim>
				</port>
			</output>
		</layer>
		<layer id="57" name="Reshape_116171" type="Reshape" version="opset1">
			<data special_zero="false" />
			<input>
				<port id="0" precision="I64" />
				<port id="1" precision="I64">
					<dim>1</dim>
				</port>
			</input>
			<output>
				<port id="2" precision="I64">
					<dim>1</dim>
				</port>
			</output>
		</layer>
		<layer id="58" name="__module.action_model.action_encoder/prim::ListConstruct/SequenceMark" type="Concat" version="opset1">
			<data axis="0" />
			<input>
				<port id="0" precision="I64">
					<dim>1</dim>
				</port>
				<port id="1" precision="I64">
					<dim>1</dim>
				</port>
			</input>
			<output>
				<port id="2" precision="I64">
					<dim>2</dim>
				</port>
			</output>
		</layer>
		<layer id="59" name="__module.action_model.action_encoder/aten::expand/Broadcast" type="Broadcast" version="opset3">
			<data mode="bidirectional" />
			<input>
				<port id="0" precision="I64">
					<dim>-1</dim>
					<dim>1</dim>
				</port>
				<port id="1" precision="I64">
					<dim>2</dim>
				</port>
			</input>
			<output>
				<port id="2" precision="I64" names="381,timesteps.3">
					<dim>-1</dim>
					<dim>-1</dim>
				</port>
			</output>
		</layer>
		<layer id="60" name="__module.action_model.action_encoder.pos_encoding/aten::to/Convert" type="Convert" version="opset1">
			<data destination_type="f32" />
			<input>
				<port id="0" precision="I64">
					<dim>-1</dim>
					<dim>-1</dim>
				</port>
			</input>
			<output>
				<port id="1" precision="FP32" names="385,timesteps.5">
					<dim>-1</dim>
					<dim>-1</dim>
				</port>
			</output>
		</layer>
		<layer id="61" name="373" type="Const" version="opset1">
			<data element_type="i64" shape="" offset="3290140" size="8" />
			<output>
				<port id="0" precision="I64" names="373" />
			</output>
		</layer>
		<layer id="62" name="__module.action_model.action_encoder.pos_encoding/aten::unsqueeze/Unsqueeze" type="Unsqueeze" version="opset1">
			<input>
				<port id="0" precision="FP32">
					<dim>-1</dim>
					<dim>-1</dim>
				</port>
				<port id="1" precision="I64" />
			</input>
			<output>
				<port id="2" precision="FP32" names="393">
					<dim>-1</dim>
					<dim>-1</dim>
					<dim>1</dim>
				</port>
			</output>
		</layer>
		<layer id="63" name="__module.action_model.action_encoder.pos_encoding/aten::neg/Constant" type="Const" version="opset1">
			<data element_type="i32" shape="" offset="3290148" size="4" />
			<output>
				<port id="0" precision="I32" />
			</output>
		</layer>
		<layer id="64" name="__module.action_model.action_encoder.pos_encoding/aten::neg/ConvertLike" type="Convert" version="opset1">
			<data destination_type="f32" />
			<input>
				<port id="0" precision="I32" />
			</input>
			<output>
				<port id="1" precision="FP32" />
			</output>
		</layer>
		<layer id="65" name="Constant_109713_compressed" type="Const" version="opset1">
			<data element_type="f16" shape="768" offset="3290152" size="1536" />
			<output>
				<port id="0" precision="FP16">
					<dim>768</dim>
				</port>
			</output>
		</layer>
		<layer id="66" name="Constant_109713" type="Convert" version="opset1">
			<data destination_type="f32" />
			<rt_info>
				<attribute name="decompression" version="0" />
			</rt_info>
			<input>
				<port id="0" precision="FP16">
					<dim>768</dim>
				</port>
			</input>
			<output>
				<port id="1" precision="FP32">
					<dim>768</dim>
				</port>
			</output>
		</layer>
		<layer id="67" name="__module.action_model.action_encoder.pos_encoding/aten::mul/Multiply" type="Multiply" version="opset1">
			<data auto_broadcast="numpy" />
			<input>
				<port id="0" precision="FP32" />
				<port id="1" precision="FP32">
					<dim>768</dim>
				</port>
			</input>
			<output>
				<port id="2" precision="FP32" names="392,exponent.1">
					<dim>768</dim>
				</port>
			</output>
		</layer>
		<layer id="68" name="__module.action_model.action_encoder.pos_encoding/aten::exp/Exp" type="Exp" version="opset1">
			<input>
				<port id="0" precision="FP32">
					<dim>768</dim>
				</port>
			</input>
			<output>
				<port id="1" precision="FP32" names="394">
					<dim>768</dim>
				</port>
			</output>
		</layer>
		<layer id="69" name="__module.action_model.action_encoder.pos_encoding/aten::mul/Multiply_1" type="Multiply" version="opset1">
			<data auto_broadcast="numpy" />
			<input>
				<port id="0" precision="FP32">
					<dim>-1</dim>
					<dim>-1</dim>
					<dim>1</dim>
				</port>
				<port id="1" precision="FP32">
					<dim>768</dim>
				</port>
			</input>
			<output>
				<port id="2" precision="FP32" names="395,freqs.1">
					<dim>-1</dim>
					<dim>-1</dim>
					<dim>768</dim>
				</port>
			</output>
		</layer>
		<layer id="70" name="__module.action_model.action_encoder.pos_encoding/aten::sin/Sin" type="Sin" version="opset1">
			<input>
				<port id="0" precision="FP32">
					<dim>-1</dim>
					<dim>-1</dim>
					<dim>768</dim>
				</port>
			</input>
			<output>
				<port id="1" precision="FP32" names="396,sin.1">
					<dim>-1</dim>
					<dim>-1</dim>
					<dim>768</dim>
				</port>
			</output>
		</layer>
		<layer id="71" name="__module.action_model.action_encoder.pos_encoding/aten::cos/Cos" type="Cos" version="opset1">
			<input>
				<port id="0" precision="FP32">
					<dim>-1</dim>
					<dim>-1</dim>
					<dim>768</dim>
				</port>
			</input>
			<output>
				<port id="1" precision="FP32" names="397,cos.1">
					<dim>-1</dim>
					<dim>-1</dim>
					<dim>768</dim>
				</port>
			</output>
		</layer>
		<layer id="72" name="__module.action_model.action_encoder/aten::cat/Concat" type="Concat" version="opset1">
			<data axis="-1" />
			<input>
				<port id="0" precision="FP32">
					<dim>-1</dim>
					<dim>-1</dim>
					<dim>1536</dim>
				</port>
				<port id="1" precision="FP32">
					<dim>-1</dim>
					<dim>-1</dim>
					<dim>768</dim>
				</port>
				<port id="2" precision="FP32">
					<dim>-1</dim>
					<dim>-1</dim>
					<dim>768</dim>
				</port>
			</input>
			<output>
				<port id="3" precision="FP32" names="402,input.1">
					<dim>-1</dim>
					<dim>-1</dim>
					<dim>3072</dim>
				</port>
			</output>
		</layer>
		<layer id="73" name="self.action_model.action_encoder.layer2.weight_compressed" type="Const" version="opset1">
			<data element_type="f16" shape="1536, 3072" offset="3291688" size="9437184" />
			<output>
				<port id="0" precision="FP16" names="self.action_model.action_encoder.layer2.weight">
					<dim>1536</dim>
					<dim>3072</dim>
				</port>
			</output>
		</layer>
		<layer id="74" name="self.action_model.action_encoder.layer2.weight" type="Convert" version="opset1">
			<data destination_type="f32" />
			<rt_info>
				<attribute name="decompression" version="0" />
			</rt_info>
			<input>
				<port id="0" precision="FP16">
					<dim>1536</dim>
					<dim>3072</dim>
				</port>
			</input>
			<output>
				<port id="1" precision="FP32">
					<dim>1536</dim>
					<dim>3072</dim>
				</port>
			</output>
		</layer>
		<layer id="75" name="__module.action_model.action_encoder.layer2/aten::linear/MatMul" type="MatMul" version="opset1">
			<data transpose_a="false" transpose_b="true" />
			<input>
				<port id="0" precision="FP32">
					<dim>-1</dim>
					<dim>-1</dim>
					<dim>3072</dim>
				</port>
				<port id="1" precision="FP32">
					<dim>1536</dim>
					<dim>3072</dim>
				</port>
			</input>
			<output>
				<port id="2" precision="FP32">
					<dim>-1</dim>
					<dim>-1</dim>
					<dim>1536</dim>
				</port>
			</output>
		</layer>
		<layer id="76" name="Constant_110713_compressed" type="Const" version="opset1">
			<data element_type="f16" shape="1, 1, 1536" offset="12728872" size="3072" />
			<output>
				<port id="0" precision="FP16">
					<dim>1</dim>
					<dim>1</dim>
					<dim>1536</dim>
				</port>
			</output>
		</layer>
		<layer id="77" name="Constant_110713" type="Convert" version="opset1">
			<data destination_type="f32" />
			<rt_info>
				<attribute name="decompression" version="0" />
			</rt_info>
			<input>
				<port id="0" precision="FP16">
					<dim>1</dim>
					<dim>1</dim>
					<dim>1536</dim>
				</port>
			</input>
			<output>
				<port id="1" precision="FP32">
					<dim>1</dim>
					<dim>1</dim>
					<dim>1536</dim>
				</port>
			</output>
		</layer>
		<layer id="78" name="__module.action_model.action_encoder.layer2/aten::linear/Add" type="Add" version="opset1">
			<data auto_broadcast="numpy" />
			<input>
				<port id="0" precision="FP32">
					<dim>-1</dim>
					<dim>-1</dim>
					<dim>1536</dim>
				</port>
				<port id="1" precision="FP32">
					<dim>1</dim>
					<dim>1</dim>
					<dim>1536</dim>
				</port>
			</input>
			<output>
				<port id="2" precision="FP32" names="405,x.1">
					<dim>-1</dim>
					<dim>-1</dim>
					<dim>1536</dim>
				</port>
			</output>
		</layer>
		<layer id="79" name="__module.action_model.action_encoder/aten::mul/Multiply" type="Swish" version="opset4">
			<input>
				<port id="0" precision="FP32">
					<dim>-1</dim>
					<dim>-1</dim>
					<dim>1536</dim>
				</port>
			</input>
			<output>
				<port id="1" precision="FP32" names="407,input.3">
					<dim>-1</dim>
					<dim>-1</dim>
					<dim>1536</dim>
				</port>
			</output>
		</layer>
		<layer id="80" name="self.action_model.action_encoder.layer3.weight_compressed" type="Const" version="opset1">
			<data element_type="f16" shape="1536, 1536" offset="12731944" size="4718592" />
			<output>
				<port id="0" precision="FP16" names="self.action_model.action_encoder.layer3.weight">
					<dim>1536</dim>
					<dim>1536</dim>
				</port>
			</output>
		</layer>
		<layer id="81" name="self.action_model.action_encoder.layer3.weight" type="Convert" version="opset1">
			<data destination_type="f32" />
			<rt_info>
				<attribute name="decompression" version="0" />
			</rt_info>
			<input>
				<port id="0" precision="FP16">
					<dim>1536</dim>
					<dim>1536</dim>
				</port>
			</input>
			<output>
				<port id="1" precision="FP32">
					<dim>1536</dim>
					<dim>1536</dim>
				</port>
			</output>
		</layer>
		<layer id="82" name="__module.action_model.action_encoder.layer3/aten::linear/MatMul" type="MatMul" version="opset1">
			<data transpose_a="false" transpose_b="true" />
			<input>
				<port id="0" precision="FP32">
					<dim>-1</dim>
					<dim>-1</dim>
					<dim>1536</dim>
				</port>
				<port id="1" precision="FP32">
					<dim>1536</dim>
					<dim>1536</dim>
				</port>
			</input>
			<output>
				<port id="2" precision="FP32">
					<dim>-1</dim>
					<dim>-1</dim>
					<dim>1536</dim>
				</port>
			</output>
		</layer>
		<layer id="83" name="Constant_110714_compressed" type="Const" version="opset1">
			<data element_type="f16" shape="1, 1, 1536" offset="17450536" size="3072" />
			<output>
				<port id="0" precision="FP16">
					<dim>1</dim>
					<dim>1</dim>
					<dim>1536</dim>
				</port>
			</output>
		</layer>
		<layer id="84" name="Constant_110714" type="Convert" version="opset1">
			<data destination_type="f32" />
			<rt_info>
				<attribute name="decompression" version="0" />
			</rt_info>
			<input>
				<port id="0" precision="FP16">
					<dim>1</dim>
					<dim>1</dim>
					<dim>1536</dim>
				</port>
			</input>
			<output>
				<port id="1" precision="FP32">
					<dim>1</dim>
					<dim>1</dim>
					<dim>1536</dim>
				</port>
			</output>
		</layer>
		<layer id="85" name="__module.action_model.action_encoder.layer3/aten::linear/Add" type="Add" version="opset1">
			<data auto_broadcast="numpy" />
			<input>
				<port id="0" precision="FP32">
					<dim>-1</dim>
					<dim>-1</dim>
					<dim>1536</dim>
				</port>
				<port id="1" precision="FP32">
					<dim>1</dim>
					<dim>1</dim>
					<dim>1536</dim>
				</port>
			</input>
			<output>
				<port id="2" precision="FP32" names="410,action_features.1">
					<dim>-1</dim>
					<dim>-1</dim>
					<dim>1536</dim>
				</port>
			</output>
		</layer>
		<layer id="86" name="self.action_model.position_embedding.weight_compressed" type="Const" version="opset1">
			<data element_type="f16" shape="1024, 1536" offset="17453608" size="3145728" />
			<output>
				<port id="0" precision="FP16" names="self.action_model.position_embedding.weight">
					<dim>1024</dim>
					<dim>1536</dim>
				</port>
			</output>
		</layer>
		<layer id="87" name="self.action_model.position_embedding.weight" type="Convert" version="opset1">
			<data destination_type="f32" />
			<rt_info>
				<attribute name="decompression" version="0" />
			</rt_info>
			<input>
				<port id="0" precision="FP16">
					<dim>1024</dim>
					<dim>1536</dim>
				</port>
			</input>
			<output>
				<port id="1" precision="FP32">
					<dim>1024</dim>
					<dim>1536</dim>
				</port>
			</output>
		</layer>
		<layer id="88" name="aten::arange/Constant" type="Const" version="opset1">
			<data element_type="i32" shape="" offset="20599336" size="4" />
			<output>
				<port id="0" precision="I32" />
			</output>
		</layer>
		<layer id="89" name="aten::arange/Constant_1" type="Const" version="opset1">
			<data element_type="i32" shape="" offset="20599340" size="4" />
			<output>
				<port id="0" precision="I32" />
			</output>
		</layer>
		<layer id="90" name="aten::arange/Range" type="Range" version="opset4">
			<data output_type="i64" />
			<input>
				<port id="0" precision="I32" />
				<port id="1" precision="I64" />
				<port id="2" precision="I32" />
			</input>
			<output>
				<port id="3" precision="I64" names="68,input.9">
					<dim>-1</dim>
				</port>
			</output>
		</layer>
		<layer id="91" name="__module.action_model.position_embedding/aten::embedding/Convert" type="Convert" version="opset1">
			<data destination_type="i32" />
			<input>
				<port id="0" precision="I64">
					<dim>-1</dim>
				</port>
			</input>
			<output>
				<port id="1" precision="I32">
					<dim>-1</dim>
				</port>
			</output>
		</layer>
		<layer id="92" name="__module.action_model.position_embedding/aten::embedding/Constant" type="Const" version="opset1">
			<data element_type="i32" shape="" offset="20599336" size="4" />
			<output>
				<port id="0" precision="I32" />
			</output>
		</layer>
		<layer id="93" name="__module.action_model.position_embedding/aten::embedding/Gather" type="Gather" version="opset8">
			<data batch_dims="0" />
			<input>
				<port id="0" precision="FP32">
					<dim>1024</dim>
					<dim>1536</dim>
				</port>
				<port id="1" precision="I32">
					<dim>-1</dim>
				</port>
				<port id="2" precision="I32" />
			</input>
			<output>
				<port id="3" precision="FP32" names="423">
					<dim>-1</dim>
					<dim>1536</dim>
				</port>
			</output>
		</layer>
		<layer id="94" name="70" type="Const" version="opset1">
			<data element_type="i64" shape="" offset="3265536" size="8" />
			<output>
				<port id="0" precision="I64" names="70" />
			</output>
		</layer>
		<layer id="95" name="aten::unsqueeze/Unsqueeze_3" type="Unsqueeze" version="opset1">
			<input>
				<port id="0" precision="FP32">
					<dim>-1</dim>
					<dim>1536</dim>
				</port>
				<port id="1" precision="I64" />
			</input>
			<output>
				<port id="2" precision="FP32" names="71,pos_embs.1">
					<dim>1</dim>
					<dim>-1</dim>
					<dim>1536</dim>
				</port>
			</output>
		</layer>
		<layer id="96" name="aten::add/Add" type="Add" version="opset1">
			<data auto_broadcast="numpy" />
			<input>
				<port id="0" precision="FP32">
					<dim>-1</dim>
					<dim>-1</dim>
					<dim>1536</dim>
				</port>
				<port id="1" precision="FP32">
					<dim>1</dim>
					<dim>-1</dim>
					<dim>1536</dim>
				</port>
			</input>
			<output>
				<port id="2" precision="FP32" names="73,action_features.3">
					<dim>-1</dim>
					<dim>-1</dim>
					<dim>1536</dim>
				</port>
			</output>
		</layer>
		<layer id="97" name="aten::cat/Concat" type="Concat" version="opset1">
			<data axis="1" />
			<input>
				<port id="0" precision="FP32">
					<dim>-1</dim>
					<dim>-1</dim>
					<dim>1536</dim>
				</port>
				<port id="1" precision="FP32">
					<dim>-1</dim>
					<dim>32</dim>
					<dim>1536</dim>
				</port>
				<port id="2" precision="FP32">
					<dim>-1</dim>
					<dim>-1</dim>
					<dim>1536</dim>
				</port>
			</input>
			<output>
				<port id="3" precision="FP32" names="87,hidden_states.1">
					<dim>-1</dim>
					<dim>-1</dim>
					<dim>1536</dim>
				</port>
			</output>
		</layer>
		<layer id="98" name="__module.action_model.model.transformer_blocks.0.norm1.norm/aten::layer_norm/Multiply" type="Const" version="opset1">
			<data element_type="i32" shape="1" offset="3290148" size="4" />
			<output>
				<port id="0" precision="I32">
					<dim>1</dim>
				</port>
			</output>
		</layer>
		<layer id="99" name="__module.action_model.model.transformer_blocks.0.norm1.norm/aten::layer_norm/MVN" type="MVN" version="opset6">
			<data eps="9.9999997473787516e-06" normalize_variance="true" eps_mode="INSIDE_SQRT" />
			<input>
				<port id="0" precision="FP32">
					<dim>-1</dim>
					<dim>-1</dim>
					<dim>1536</dim>
				</port>
				<port id="1" precision="I32">
					<dim>1</dim>
				</port>
			</input>
			<output>
				<port id="2" precision="FP32" names="535">
					<dim>-1</dim>
					<dim>-1</dim>
					<dim>1536</dim>
				</port>
			</output>
		</layer>
		<layer id="100" name="__module.action_model.model.timestep_encoder.time_proj/aten::to/Convert" type="Convert" version="opset1">
			<data destination_type="f32" />
			<input>
				<port id="0" precision="I64">
					<dim>-1</dim>
					<dim>1</dim>
				</port>
			</input>
			<output>
				<port id="1" precision="FP32" names="491">
					<dim>-1</dim>
					<dim>1</dim>
				</port>
			</output>
		</layer>
		<layer id="101" name="__module.action_model.model.timestep_encoder.time_proj/aten::slice/Slice_1_compressed" type="Const" version="opset1">
			<data element_type="f16" shape="1, 128" offset="20599344" size="256" />
			<output>
				<port id="0" precision="FP16" names="493">
					<dim>1</dim>
					<dim>128</dim>
				</port>
			</output>
		</layer>
		<layer id="102" name="__module.action_model.model.timestep_encoder.time_proj/aten::slice/Slice_1" type="Convert" version="opset1">
			<data destination_type="f32" />
			<rt_info>
				<attribute name="decompression" version="0" />
			</rt_info>
			<input>
				<port id="0" precision="FP16">
					<dim>1</dim>
					<dim>128</dim>
				</port>
			</input>
			<output>
				<port id="1" precision="FP32">
					<dim>1</dim>
					<dim>128</dim>
				</port>
			</output>
		</layer>
		<layer id="103" name="__module.action_model.model.timestep_encoder.time_proj/aten::mul/Multiply_1" type="Multiply" version="opset1">
			<data auto_broadcast="numpy" />
			<input>
				<port id="0" precision="FP32">
					<dim>-1</dim>
					<dim>1</dim>
				</port>
				<port id="1" precision="FP32">
					<dim>1</dim>
					<dim>128</dim>
				</port>
			</input>
			<output>
				<port id="2" precision="FP32" names="494,495,emb.3,emb.5">
					<dim>-1</dim>
					<dim>128</dim>
				</port>
			</output>
		</layer>
		<layer id="104" name="__module.action_model.model.timestep_encoder.time_proj/aten::sin/Sin" type="Sin" version="opset1">
			<input>
				<port id="0" precision="FP32">
					<dim>-1</dim>
					<dim>128</dim>
				</port>
			</input>
			<output>
				<port id="1" precision="FP32" names="496">
					<dim>-1</dim>
					<dim>128</dim>
				</port>
			</output>
		</layer>
		<layer id="105" name="__module.action_model.model.timestep_encoder.time_proj/aten::cos/Cos" type="Cos" version="opset1">
			<input>
				<port id="0" precision="FP32">
					<dim>-1</dim>
					<dim>128</dim>
				</port>
			</input>
			<output>
				<port id="1" precision="FP32" names="497">
					<dim>-1</dim>
					<dim>128</dim>
				</port>
			</output>
		</layer>
		<layer id="106" name="__module.action_model.model.timestep_encoder.time_proj/aten::cat/Concat" type="Concat" version="opset1">
			<data axis="-1" />
			<input>
				<port id="0" precision="FP32">
					<dim>-1</dim>
					<dim>128</dim>
				</port>
				<port id="1" precision="FP32">
					<dim>-1</dim>
					<dim>128</dim>
				</port>
			</input>
			<output>
				<port id="2" precision="FP32" names="499,500,502,emb.7">
					<dim>-1</dim>
					<dim>256</dim>
				</port>
			</output>
		</layer>
		<layer id="107" name="Constant_443" type="Const" version="opset1">
			<data element_type="i64" shape="1" offset="20599600" size="8" />
			<output>
				<port id="0" precision="I64">
					<dim>1</dim>
				</port>
			</output>
		</layer>
		<layer id="108" name="Constant_445" type="Const" version="opset1">
			<data element_type="i64" shape="1" offset="20599608" size="8" />
			<output>
				<port id="0" precision="I64">
					<dim>1</dim>
				</port>
			</output>
		</layer>
		<layer id="109" name="Constant_447" type="Const" version="opset1">
			<data element_type="i64" shape="1" offset="3265544" size="8" />
			<output>
				<port id="0" precision="I64">
					<dim>1</dim>
				</port>
			</output>
		</layer>
		<layer id="110" name="Constant_441" type="Const" version="opset1">
			<data element_type="i64" shape="1" offset="3265544" size="8" />
			<output>
				<port id="0" precision="I64">
					<dim>1</dim>
				</port>
			</output>
		</layer>
		<layer id="111" name="__module.action_model.model.timestep_encoder.time_proj/aten::slice/Slice_3" type="Slice" version="opset8">
			<input>
				<port id="0" precision="FP32">
					<dim>-1</dim>
					<dim>256</dim>
				</port>
				<port id="1" precision="I64">
					<dim>1</dim>
				</port>
				<port id="2" precision="I64">
					<dim>1</dim>
				</port>
				<port id="3" precision="I64">
					<dim>1</dim>
				</port>
				<port id="4" precision="I64">
					<dim>1</dim>
				</port>
			</input>
			<output>
				<port id="5" precision="FP32" names="501">
					<dim>-1</dim>
					<dim>128</dim>
				</port>
			</output>
		</layer>
		<layer id="112" name="Constant_463" type="Const" version="opset1">
			<data element_type="i64" shape="1" offset="3265536" size="8" />
			<output>
				<port id="0" precision="I64">
					<dim>1</dim>
				</port>
			</output>
		</layer>
		<layer id="113" name="Constant_465" type="Const" version="opset1">
			<data element_type="i64" shape="1" offset="20599600" size="8" />
			<output>
				<port id="0" precision="I64">
					<dim>1</dim>
				</port>
			</output>
		</layer>
		<layer id="114" name="Constant_467" type="Const" version="opset1">
			<data element_type="i64" shape="1" offset="3265544" size="8" />
			<output>
				<port id="0" precision="I64">
					<dim>1</dim>
				</port>
			</output>
		</layer>
		<layer id="115" name="Constant_461" type="Const" version="opset1">
			<data element_type="i64" shape="1" offset="3265544" size="8" />
			<output>
				<port id="0" precision="I64">
					<dim>1</dim>
				</port>
			</output>
		</layer>
		<layer id="116" name="__module.action_model.model.timestep_encoder.time_proj/aten::slice/Slice_5" type="Slice" version="opset8">
			<input>
				<port id="0" precision="FP32">
					<dim>-1</dim>
					<dim>256</dim>
				</port>
				<port id="1" precision="I64">
					<dim>1</dim>
				</port>
				<port id="2" precision="I64">
					<dim>1</dim>
				</port>
				<port id="3" precision="I64">
					<dim>1</dim>
				</port>
				<port id="4" precision="I64">
					<dim>1</dim>
				</port>
			</input>
			<output>
				<port id="5" precision="FP32" names="503">
					<dim>-1</dim>
					<dim>128</dim>
				</port>
			</output>
		</layer>
		<layer id="117" name="__module.action_model.model.timestep_encoder.time_proj/aten::cat/Concat_1" type="Concat" version="opset1">
			<data axis="-1" />
			<input>
				<port id="0" precision="FP32">
					<dim>-1</dim>
					<dim>128</dim>
				</port>
				<port id="1" precision="FP32">
					<dim>-1</dim>
					<dim>128</dim>
				</port>
			</input>
			<output>
				<port id="2" precision="FP32" names="505,506,input.11">
					<dim>-1</dim>
					<dim>256</dim>
				</port>
			</output>
		</layer>
		<layer id="118" name="self.action_model.model.timestep_encoder.timestep_embedder.linear_1.weight_compressed" type="Const" version="opset1">
			<data element_type="f16" shape="1536, 256" offset="20599616" size="786432" />
			<output>
				<port id="0" precision="FP16" names="self.action_model.model.timestep_encoder.timestep_embedder.linear_1.weight">
					<dim>1536</dim>
					<dim>256</dim>
				</port>
			</output>
		</layer>
		<layer id="119" name="self.action_model.model.timestep_encoder.timestep_embedder.linear_1.weight" type="Convert" version="opset1">
			<data destination_type="f32" />
			<rt_info>
				<attribute name="decompression" version="0" />
			</rt_info>
			<input>
				<port id="0" precision="FP16">
					<dim>1536</dim>
					<dim>256</dim>
				</port>
			</input>
			<output>
				<port id="1" precision="FP32">
					<dim>1536</dim>
					<dim>256</dim>
				</port>
			</output>
		</layer>
		<layer id="120" name="__module.action_model.model.timestep_encoder.timestep_embedder.linear_1/aten::linear/MatMul" type="MatMul" version="opset1">
			<data transpose_a="false" transpose_b="true" />
			<input>
				<port id="0" precision="FP32">
					<dim>-1</dim>
					<dim>256</dim>
				</port>
				<port id="1" precision="FP32">
					<dim>1536</dim>
					<dim>256</dim>
				</port>
			</input>
			<output>
				<port id="2" precision="FP32">
					<dim>-1</dim>
					<dim>1536</dim>
				</port>
			</output>
		</layer>
		<layer id="121" name="Constant_110715_compressed" type="Const" version="opset1">
			<data element_type="f16" shape="1, 1536" offset="21386048" size="3072" />
			<output>
				<port id="0" precision="FP16">
					<dim>1</dim>
					<dim>1536</dim>
				</port>
			</output>
		</layer>
		<layer id="122" name="Constant_110715" type="Convert" version="opset1">
			<data destination_type="f32" />
			<rt_info>
				<attribute name="decompression" version="0" />
			</rt_info>
			<input>
				<port id="0" precision="FP16">
					<dim>1</dim>
					<dim>1536</dim>
				</port>
			</input>
			<output>
				<port id="1" precision="FP32">
					<dim>1</dim>
					<dim>1536</dim>
				</port>
			</output>
		</layer>
		<layer id="123" name="__module.action_model.model.timestep_encoder.timestep_embedder.linear_1/aten::linear/Add" type="Add" version="opset1">
			<data auto_broadcast="numpy" />
			<input>
				<port id="0" precision="FP32">
					<dim>-1</dim>
					<dim>1536</dim>
				</port>
				<port id="1" precision="FP32">
					<dim>1</dim>
					<dim>1536</dim>
				</port>
			</input>
			<output>
				<port id="2" precision="FP32" names="512,input.13">
					<dim>-1</dim>
					<dim>1536</dim>
				</port>
			</output>
		</layer>
		<layer id="124" name="__module.action_model.model.timestep_encoder.timestep_embedder.act/aten::silu/Swish" type="Swish" version="opset4">
			<input>
				<port id="0" precision="FP32">
					<dim>-1</dim>
					<dim>1536</dim>
				</port>
			</input>
			<output>
				<port id="1" precision="FP32" names="513,input.15">
					<dim>-1</dim>
					<dim>1536</dim>
				</port>
			</output>
		</layer>
		<layer id="125" name="self.action_model.model.timestep_encoder.timestep_embedder.linear_2.weight_compressed" type="Const" version="opset1">
			<data element_type="f16" shape="1536, 1536" offset="21389120" size="4718592" />
			<output>
				<port id="0" precision="FP16" names="self.action_model.model.timestep_encoder.timestep_embedder.linear_2.weight">
					<dim>1536</dim>
					<dim>1536</dim>
				</port>
			</output>
		</layer>
		<layer id="126" name="self.action_model.model.timestep_encoder.timestep_embedder.linear_2.weight" type="Convert" version="opset1">
			<data destination_type="f32" />
			<rt_info>
				<attribute name="decompression" version="0" />
			</rt_info>
			<input>
				<port id="0" precision="FP16">
					<dim>1536</dim>
					<dim>1536</dim>
				</port>
			</input>
			<output>
				<port id="1" precision="FP32">
					<dim>1536</dim>
					<dim>1536</dim>
				</port>
			</output>
		</layer>
		<layer id="127" name="__module.action_model.model.timestep_encoder.timestep_embedder.linear_2/aten::linear/MatMul" type="MatMul" version="opset1">
			<data transpose_a="false" transpose_b="true" />
			<input>
				<port id="0" precision="FP32">
					<dim>-1</dim>
					<dim>1536</dim>
				</port>
				<port id="1" precision="FP32">
					<dim>1536</dim>
					<dim>1536</dim>
				</port>
			</input>
			<output>
				<port id="2" precision="FP32">
					<dim>-1</dim>
					<dim>1536</dim>
				</port>
			</output>
		</layer>
		<layer id="128" name="Constant_110716_compressed" type="Const" version="opset1">
			<data element_type="f16" shape="1, 1536" offset="26107712" size="3072" />
			<output>
				<port id="0" precision="FP16">
					<dim>1</dim>
					<dim>1536</dim>
				</port>
			</output>
		</layer>
		<layer id="129" name="Constant_110716" type="Convert" version="opset1">
			<data destination_type="f32" />
			<rt_info>
				<attribute name="decompression" version="0" />
			</rt_info>
			<input>
				<port id="0" precision="FP16">
					<dim>1</dim>
					<dim>1536</dim>
				</port>
			</input>
			<output>
				<port id="1" precision="FP32">
					<dim>1</dim>
					<dim>1536</dim>
				</port>
			</output>
		</layer>
		<layer id="130" name="__module.action_model.model.timestep_encoder.timestep_embedder.linear_2/aten::linear/Add" type="Add" version="opset1">
			<data auto_broadcast="numpy" />
			<input>
				<port id="0" precision="FP32">
					<dim>-1</dim>
					<dim>1536</dim>
				</port>
				<port id="1" precision="FP32">
					<dim>1</dim>
					<dim>1536</dim>
				</port>
			</input>
			<output>
				<port id="2" precision="FP32" names="516,input.17">
					<dim>-1</dim>
					<dim>1536</dim>
				</port>
			</output>
		</layer>
		<layer id="131" name="__module.action_model.model.transformer_blocks.0.norm1.silu/aten::silu/Swish" type="Swish" version="opset4">
			<input>
				<port id="0" precision="FP32">
					<dim>-1</dim>
					<dim>1536</dim>
				</port>
			</input>
			<output>
				<port id="1" precision="FP32" names="1061,1150,1239,1328,1417,1506,1595,1684,1773,1862,1943,527,616,705,794,883,972,input.103,input.125,input.145,input.167,input.187,input.19,input.209,input.229,input.251,input.271,input.293,input.313,input.335,input.355,input.41,input.61,input.83">
					<dim>-1</dim>
					<dim>1536</dim>
				</port>
			</output>
		</layer>
		<layer id="132" name="self.action_model.model.transformer_blocks.0.norm1.linear.weight_compressed" type="Const" version="opset1">
			<data element_type="f16" shape="3072, 1536" offset="26110784" size="9437184" />
			<output>
				<port id="0" precision="FP16" names="self.action_model.model.transformer_blocks.0.norm1.linear.weight">
					<dim>3072</dim>
					<dim>1536</dim>
				</port>
			</output>
		</layer>
		<layer id="133" name="self.action_model.model.transformer_blocks.0.norm1.linear.weight" type="Convert" version="opset1">
			<data destination_type="f32" />
			<rt_info>
				<attribute name="decompression" version="0" />
			</rt_info>
			<input>
				<port id="0" precision="FP16">
					<dim>3072</dim>
					<dim>1536</dim>
				</port>
			</input>
			<output>
				<port id="1" precision="FP32">
					<dim>3072</dim>
					<dim>1536</dim>
				</port>
			</output>
		</layer>
		<layer id="134" name="__module.action_model.model.transformer_blocks.0.norm1.linear/aten::linear/MatMul" type="MatMul" version="opset1">
			<data transpose_a="false" transpose_b="true" />
			<input>
				<port id="0" precision="FP32">
					<dim>-1</dim>
					<dim>1536</dim>
				</port>
				<port id="1" precision="FP32">
					<dim>3072</dim>
					<dim>1536</dim>
				</port>
			</input>
			<output>
				<port id="2" precision="FP32">
					<dim>-1</dim>
					<dim>3072</dim>
				</port>
			</output>
		</layer>
		<layer id="135" name="Constant_110717_compressed" type="Const" version="opset1">
			<data element_type="f16" shape="1, 3072" offset="35547968" size="6144" />
			<output>
				<port id="0" precision="FP16">
					<dim>1</dim>
					<dim>3072</dim>
				</port>
			</output>
		</layer>
		<layer id="136" name="Constant_110717" type="Convert" version="opset1">
			<data destination_type="f32" />
			<rt_info>
				<attribute name="decompression" version="0" />
			</rt_info>
			<input>
				<port id="0" precision="FP16">
					<dim>1</dim>
					<dim>3072</dim>
				</port>
			</input>
			<output>
				<port id="1" precision="FP32">
					<dim>1</dim>
					<dim>3072</dim>
				</port>
			</output>
		</layer>
		<layer id="137" name="__module.action_model.model.transformer_blocks.0.norm1.linear/aten::linear/Add" type="Add" version="opset1">
			<data auto_broadcast="numpy" />
			<input>
				<port id="0" precision="FP32">
					<dim>-1</dim>
					<dim>3072</dim>
				</port>
				<port id="1" precision="FP32">
					<dim>1</dim>
					<dim>3072</dim>
				</port>
			</input>
			<output>
				<port id="2" precision="FP32" names="530,temb.1">
					<dim>-1</dim>
					<dim>3072</dim>
				</port>
			</output>
		</layer>
		<layer id="138" name="437" type="Const" version="opset1">
			<data element_type="i64" shape="" offset="3265544" size="8" />
			<output>
				<port id="0" precision="I64" names="437" />
			</output>
		</layer>
		<layer id="139" name="__module.action_model.model.transformer_blocks.0.norm1/prim::ListUnpack/ShapeOf" type="ShapeOf" version="opset3">
			<data output_type="i32" />
			<input>
				<port id="0" precision="FP32">
					<dim>-1</dim>
					<dim>3072</dim>
				</port>
			</input>
			<output>
				<port id="1" precision="I32">
					<dim>2</dim>
				</port>
			</output>
		</layer>
		<layer id="140" name="Constant_33462" type="Const" version="opset1">
			<data element_type="i32" shape="1" offset="20599336" size="4" />
			<output>
				<port id="0" precision="I32">
					<dim>1</dim>
				</port>
			</output>
		</layer>
		<layer id="141" name="__module.action_model.model.transformer_blocks.0.norm1/prim::ListUnpack/Gather" type="Gather" version="opset8">
			<data batch_dims="0" />
			<input>
				<port id="0" precision="I32">
					<dim>2</dim>
				</port>
				<port id="1" precision="I64" />
				<port id="2" precision="I32">
					<dim>1</dim>
				</port>
			</input>
			<output>
				<port id="3" precision="I32" />
			</output>
		</layer>
		<layer id="142" name="__module.action_model.model.transformer_blocks.0.norm1/prim::ListUnpack/Convert" type="Const" version="opset1">
			<data element_type="i32" shape="" offset="35554112" size="4" />
			<output>
				<port id="0" precision="I32" />
			</output>
		</layer>
		<layer id="143" name="__module.action_model.model.transformer_blocks.0.norm1/prim::ListUnpack/Divide" type="Divide" version="opset1">
			<data auto_broadcast="numpy" m_pythondiv="true" />
			<input>
				<port id="0" precision="I32" />
				<port id="1" precision="I32" />
			</input>
			<output>
				<port id="2" precision="I32" />
			</output>
		</layer>
		<layer id="144" name="__module.action_model.model.transformer_blocks.0.norm1/prim::ListUnpack/Mod" type="Mod" version="opset1">
			<data auto_broadcast="numpy" />
			<input>
				<port id="0" precision="I32" />
				<port id="1" precision="I32" />
			</input>
			<output>
				<port id="2" precision="I32" />
			</output>
		</layer>
		<layer id="145" name="__module.action_model.model.transformer_blocks.0.norm1/prim::ListUnpack/Greater" type="Greater" version="opset1">
			<data auto_broadcast="numpy" />
			<input>
				<port id="0" precision="I32" />
				<port id="1" precision="I32">
					<dim>1</dim>
				</port>
			</input>
			<output>
				<port id="2" precision="BOOL">
					<dim>1</dim>
				</port>
			</output>
		</layer>
		<layer id="146" name="__module.action_model.model.transformer_blocks.0.norm1/prim::ListUnpack/Convert_0" type="Convert" version="opset1">
			<data destination_type="i32" />
			<input>
				<port id="0" precision="BOOL">
					<dim>1</dim>
				</port>
			</input>
			<output>
				<port id="1" precision="I32">
					<dim>1</dim>
				</port>
			</output>
		</layer>
		<layer id="147" name="__module.action_model.model.transformer_blocks.0.norm1/prim::ListUnpack/Add" type="Add" version="opset1">
			<data auto_broadcast="numpy" />
			<input>
				<port id="0" precision="I32" />
				<port id="1" precision="I32">
					<dim>1</dim>
				</port>
			</input>
			<output>
				<port id="2" precision="I32">
					<dim>1</dim>
				</port>
			</output>
		</layer>
		<layer id="148" name="Constant_33463" type="Const" version="opset1">
			<data element_type="i32" shape="1" offset="3290148" size="4" />
			<output>
				<port id="0" precision="I32">
					<dim>1</dim>
				</port>
			</output>
		</layer>
		<layer id="149" name="__module.action_model.model.transformer_blocks.0.norm1/prim::ListUnpack/Concat" type="Concat" version="opset1">
			<data axis="0" />
			<input>
				<port id="0" precision="I32">
					<dim>1</dim>
				</port>
				<port id="1" precision="I32">
					<dim>1</dim>
				</port>
			</input>
			<output>
				<port id="2" precision="I32">
					<dim>2</dim>
				</port>
			</output>
		</layer>
		<layer id="150" name="__module.action_model.model.transformer_blocks.0.norm1/prim::ListUnpack/VariadicSplit" type="VariadicSplit" version="opset1">
			<input>
				<port id="0" precision="FP32">
					<dim>-1</dim>
					<dim>3072</dim>
				</port>
				<port id="1" precision="I64" />
				<port id="2" precision="I32">
					<dim>2</dim>
				</port>
			</input>
			<output>
				<port id="3" precision="FP32" names="532,536,scale.1">
					<dim>-1</dim>
					<dim>1536</dim>
				</port>
				<port id="4" precision="FP32" names="533,540,shift.1">
					<dim>-1</dim>
					<dim>1536</dim>
				</port>
			</output>
		</layer>
		<layer id="151" name="__module.action_model.model.transformer_blocks.0.norm1/aten::unsqueeze/Unsqueeze" type="Unsqueeze" version="opset1">
			<input>
				<port id="0" precision="FP32">
					<dim>-1</dim>
					<dim>1536</dim>
				</port>
				<port id="1" precision="I64" />
			</input>
			<output>
				<port id="2" precision="FP32" names="537">
					<dim>-1</dim>
					<dim>1</dim>
					<dim>1536</dim>
				</port>
			</output>
		</layer>
		<layer id="152" name="Constant_110718_compressed" type="Const" version="opset1">
			<data element_type="f16" shape="1, 1, 1" offset="35554116" size="2" />
			<output>
				<port id="0" precision="FP16">
					<dim>1</dim>
					<dim>1</dim>
					<dim>1</dim>
				</port>
			</output>
		</layer>
		<layer id="153" name="Constant_110718" type="Convert" version="opset1">
			<data destination_type="f32" />
			<rt_info>
				<attribute name="decompression" version="0" />
			</rt_info>
			<input>
				<port id="0" precision="FP16">
					<dim>1</dim>
					<dim>1</dim>
					<dim>1</dim>
				</port>
			</input>
			<output>
				<port id="1" precision="FP32">
					<dim>1</dim>
					<dim>1</dim>
					<dim>1</dim>
				</port>
			</output>
		</layer>
		<layer id="154" name="__module.action_model.model.transformer_blocks.0.norm1/aten::add/Add" type="Add" version="opset1">
			<data auto_broadcast="numpy" />
			<input>
				<port id="0" precision="FP32">
					<dim>-1</dim>
					<dim>1</dim>
					<dim>1536</dim>
				</port>
				<port id="1" precision="FP32">
					<dim>1</dim>
					<dim>1</dim>
					<dim>1</dim>
				</port>
			</input>
			<output>
				<port id="2" precision="FP32" names="538">
					<dim>-1</dim>
					<dim>1</dim>
					<dim>1536</dim>
				</port>
			</output>
		</layer>
		<layer id="155" name="__module.action_model.model.transformer_blocks.0.norm1/aten::mul/Multiply" type="Multiply" version="opset1">
			<data auto_broadcast="numpy" />
			<input>
				<port id="0" precision="FP32">
					<dim>-1</dim>
					<dim>-1</dim>
					<dim>1536</dim>
				</port>
				<port id="1" precision="FP32">
					<dim>-1</dim>
					<dim>1</dim>
					<dim>1536</dim>
				</port>
			</input>
			<output>
				<port id="2" precision="FP32" names="539">
					<dim>-1</dim>
					<dim>-1</dim>
					<dim>1536</dim>
				</port>
			</output>
		</layer>
		<layer id="156" name="__module.action_model.model.transformer_blocks.0.norm1/aten::unsqueeze/Unsqueeze_1" type="Unsqueeze" version="opset1">
			<input>
				<port id="0" precision="FP32">
					<dim>-1</dim>
					<dim>1536</dim>
				</port>
				<port id="1" precision="I64" />
			</input>
			<output>
				<port id="2" precision="FP32" names="541">
					<dim>-1</dim>
					<dim>1</dim>
					<dim>1536</dim>
				</port>
			</output>
		</layer>
		<layer id="157" name="__module.action_model.model.transformer_blocks.0.norm1/aten::add/Add_1" type="Add" version="opset1">
			<data auto_broadcast="numpy" />
			<input>
				<port id="0" precision="FP32">
					<dim>-1</dim>
					<dim>-1</dim>
					<dim>1536</dim>
				</port>
				<port id="1" precision="FP32">
					<dim>-1</dim>
					<dim>1</dim>
					<dim>1536</dim>
				</port>
			</input>
			<output>
				<port id="2" precision="FP32" names="542,input.23">
					<dim>-1</dim>
					<dim>-1</dim>
					<dim>1536</dim>
				</port>
			</output>
		</layer>
		<layer id="158" name="self.action_model.model.transformer_blocks.0.attn1.to_q.weight_compressed" type="Const" version="opset1">
			<data element_type="f16" shape="1536, 1536" offset="35554118" size="4718592" />
			<output>
				<port id="0" precision="FP16" names="self.action_model.model.transformer_blocks.0.attn1.to_q.weight">
					<dim>1536</dim>
					<dim>1536</dim>
				</port>
			</output>
		</layer>
		<layer id="159" name="self.action_model.model.transformer_blocks.0.attn1.to_q.weight" type="Convert" version="opset1">
			<data destination_type="f32" />
			<rt_info>
				<attribute name="decompression" version="0" />
			</rt_info>
			<input>
				<port id="0" precision="FP16">
					<dim>1536</dim>
					<dim>1536</dim>
				</port>
			</input>
			<output>
				<port id="1" precision="FP32">
					<dim>1536</dim>
					<dim>1536</dim>
				</port>
			</output>
		</layer>
		<layer id="160" name="__module.action_model.model.transformer_blocks.0.attn1.to_q/aten::linear/MatMul" type="MatMul" version="opset1">
			<data transpose_a="false" transpose_b="true" />
			<input>
				<port id="0" precision="FP32">
					<dim>-1</dim>
					<dim>-1</dim>
					<dim>1536</dim>
				</port>
				<port id="1" precision="FP32">
					<dim>1536</dim>
					<dim>1536</dim>
				</port>
			</input>
			<output>
				<port id="2" precision="FP32">
					<dim>-1</dim>
					<dim>-1</dim>
					<dim>1536</dim>
				</port>
			</output>
		</layer>
		<layer id="161" name="Constant_110719_compressed" type="Const" version="opset1">
			<data element_type="f16" shape="1, 1, 1536" offset="40272710" size="3072" />
			<output>
				<port id="0" precision="FP16">
					<dim>1</dim>
					<dim>1</dim>
					<dim>1536</dim>
				</port>
			</output>
		</layer>
		<layer id="162" name="Constant_110719" type="Convert" version="opset1">
			<data destination_type="f32" />
			<rt_info>
				<attribute name="decompression" version="0" />
			</rt_info>
			<input>
				<port id="0" precision="FP16">
					<dim>1</dim>
					<dim>1</dim>
					<dim>1536</dim>
				</port>
			</input>
			<output>
				<port id="1" precision="FP32">
					<dim>1</dim>
					<dim>1</dim>
					<dim>1536</dim>
				</port>
			</output>
		</layer>
		<layer id="163" name="__module.action_model.model.transformer_blocks.0.attn1.to_q/aten::linear/Add" type="Add" version="opset1">
			<data auto_broadcast="numpy" />
			<input>
				<port id="0" precision="FP32">
					<dim>-1</dim>
					<dim>-1</dim>
					<dim>1536</dim>
				</port>
				<port id="1" precision="FP32">
					<dim>1</dim>
					<dim>1</dim>
					<dim>1536</dim>
				</port>
			</input>
			<output>
				<port id="2" precision="FP32" names="551,query.1">
					<dim>-1</dim>
					<dim>-1</dim>
					<dim>1536</dim>
				</port>
			</output>
		</layer>
		<layer id="164" name="Constant_116554" type="Const" version="opset1">
			<data element_type="i64" shape="4" offset="40275782" size="32" />
			<rt_info>
				<attribute name="precise" version="0" />
			</rt_info>
			<output>
				<port id="0" precision="I64">
					<dim>4</dim>
				</port>
			</output>
		</layer>
		<layer id="165" name="__module.action_model.model.transformer_blocks.0.attn1/aten::view/Reshape" type="Reshape" version="opset1">
			<data special_zero="true" />
			<input>
				<port id="0" precision="FP32">
					<dim>-1</dim>
					<dim>-1</dim>
					<dim>1536</dim>
				</port>
				<port id="1" precision="I64">
					<dim>4</dim>
				</port>
			</input>
			<output>
				<port id="2" precision="FP32" names="565">
					<dim>-1</dim>
					<dim>-1</dim>
					<dim>32</dim>
					<dim>48</dim>
				</port>
			</output>
		</layer>
		<layer id="166" name="__module.action_model.model.transformer_blocks.0.attn1/aten::transpose/Constant" type="Const" version="opset1">
			<data element_type="i32" shape="4" offset="40275814" size="16" />
			<output>
				<port id="0" precision="I32">
					<dim>4</dim>
				</port>
			</output>
		</layer>
		<layer id="167" name="__module.action_model.model.transformer_blocks.0.attn1/aten::transpose/Transpose" type="Transpose" version="opset1">
			<input>
				<port id="0" precision="FP32">
					<dim>-1</dim>
					<dim>-1</dim>
					<dim>32</dim>
					<dim>48</dim>
				</port>
				<port id="1" precision="I32">
					<dim>4</dim>
				</port>
			</input>
			<output>
				<port id="2" precision="FP32" names="566,query.3">
					<dim>-1</dim>
					<dim>32</dim>
					<dim>-1</dim>
					<dim>48</dim>
				</port>
			</output>
		</layer>
		<layer id="168" name="self.action_model.model.transformer_blocks.0.attn1.to_k.weight_compressed" type="Const" version="opset1">
			<data element_type="f16" shape="1536, 2048" offset="40275830" size="6291456" />
			<output>
				<port id="0" precision="FP16" names="self.action_model.model.transformer_blocks.0.attn1.to_k.weight">
					<dim>1536</dim>
					<dim>2048</dim>
				</port>
			</output>
		</layer>
		<layer id="169" name="self.action_model.model.transformer_blocks.0.attn1.to_k.weight" type="Convert" version="opset1">
			<data destination_type="f32" />
			<rt_info>
				<attribute name="decompression" version="0" />
			</rt_info>
			<input>
				<port id="0" precision="FP16">
					<dim>1536</dim>
					<dim>2048</dim>
				</port>
			</input>
			<output>
				<port id="1" precision="FP32">
					<dim>1536</dim>
					<dim>2048</dim>
				</port>
			</output>
		</layer>
		<layer id="170" name="__module.action_model.model.transformer_blocks.0.attn1.to_k/aten::linear/MatMul" type="MatMul" version="opset1">
			<data transpose_a="false" transpose_b="true" />
			<input>
				<port id="0" precision="FP32">
					<dim>-1</dim>
					<dim>-1</dim>
					<dim>-1</dim>
				</port>
				<port id="1" precision="FP32">
					<dim>1536</dim>
					<dim>2048</dim>
				</port>
			</input>
			<output>
				<port id="2" precision="FP32">
					<dim>-1</dim>
					<dim>-1</dim>
					<dim>1536</dim>
				</port>
			</output>
		</layer>
		<layer id="171" name="Constant_110720_compressed" type="Const" version="opset1">
			<data element_type="f16" shape="1, 1, 1536" offset="46567286" size="3072" />
			<output>
				<port id="0" precision="FP16">
					<dim>1</dim>
					<dim>1</dim>
					<dim>1536</dim>
				</port>
			</output>
		</layer>
		<layer id="172" name="Constant_110720" type="Convert" version="opset1">
			<data destination_type="f32" />
			<rt_info>
				<attribute name="decompression" version="0" />
			</rt_info>
			<input>
				<port id="0" precision="FP16">
					<dim>1</dim>
					<dim>1</dim>
					<dim>1536</dim>
				</port>
			</input>
			<output>
				<port id="1" precision="FP32">
					<dim>1</dim>
					<dim>1</dim>
					<dim>1536</dim>
				</port>
			</output>
		</layer>
		<layer id="173" name="__module.action_model.model.transformer_blocks.0.attn1.to_k/aten::linear/Add" type="Add" version="opset1">
			<data auto_broadcast="numpy" />
			<input>
				<port id="0" precision="FP32">
					<dim>-1</dim>
					<dim>-1</dim>
					<dim>1536</dim>
				</port>
				<port id="1" precision="FP32">
					<dim>1</dim>
					<dim>1</dim>
					<dim>1536</dim>
				</port>
			</input>
			<output>
				<port id="2" precision="FP32" names="2160,3766,5372,554,key.1,key.129,key.193,key.65">
					<dim>-1</dim>
					<dim>-1</dim>
					<dim>1536</dim>
				</port>
			</output>
		</layer>
		<layer id="174" name="Constant_116555" type="Const" version="opset1">
			<data element_type="i64" shape="4" offset="40275782" size="32" />
			<rt_info>
				<attribute name="precise" version="0" />
			</rt_info>
			<output>
				<port id="0" precision="I64">
					<dim>4</dim>
				</port>
			</output>
		</layer>
		<layer id="175" name="__module.action_model.model.transformer_blocks.0.attn1/aten::view/Reshape_1" type="Reshape" version="opset1">
			<data special_zero="true" />
			<input>
				<port id="0" precision="FP32">
					<dim>-1</dim>
					<dim>-1</dim>
					<dim>1536</dim>
				</port>
				<port id="1" precision="I64">
					<dim>4</dim>
				</port>
			</input>
			<output>
				<port id="2" precision="FP32" names="2174,3780,5386,568">
					<dim>-1</dim>
					<dim>-1</dim>
					<dim>32</dim>
					<dim>48</dim>
				</port>
			</output>
		</layer>
		<layer id="176" name="__module.action_model.model.transformer_blocks.0.attn1/aten::transpose/Constant_1" type="Const" version="opset1">
			<data element_type="i32" shape="4" offset="40275814" size="16" />
			<output>
				<port id="0" precision="I32">
					<dim>4</dim>
				</port>
			</output>
		</layer>
		<layer id="177" name="__module.action_model.model.transformer_blocks.0.attn1/aten::transpose/Transpose_1" type="Transpose" version="opset1">
			<input>
				<port id="0" precision="FP32">
					<dim>-1</dim>
					<dim>-1</dim>
					<dim>32</dim>
					<dim>48</dim>
				</port>
				<port id="1" precision="I32">
					<dim>4</dim>
				</port>
			</input>
			<output>
				<port id="2" precision="FP32" names="2175,3781,5387,569,key.131,key.195,key.3,key.67">
					<dim>-1</dim>
					<dim>32</dim>
					<dim>-1</dim>
					<dim>48</dim>
				</port>
			</output>
		</layer>
		<layer id="178" name="self.action_model.model.transformer_blocks.0.attn1.to_v.weight_compressed" type="Const" version="opset1">
			<data element_type="f16" shape="1536, 2048" offset="46570358" size="6291456" />
			<output>
				<port id="0" precision="FP16" names="self.action_model.model.transformer_blocks.0.attn1.to_v.weight">
					<dim>1536</dim>
					<dim>2048</dim>
				</port>
			</output>
		</layer>
		<layer id="179" name="self.action_model.model.transformer_blocks.0.attn1.to_v.weight" type="Convert" version="opset1">
			<data destination_type="f32" />
			<rt_info>
				<attribute name="decompression" version="0" />
			</rt_info>
			<input>
				<port id="0" precision="FP16">
					<dim>1536</dim>
					<dim>2048</dim>
				</port>
			</input>
			<output>
				<port id="1" precision="FP32">
					<dim>1536</dim>
					<dim>2048</dim>
				</port>
			</output>
		</layer>
		<layer id="180" name="__module.action_model.model.transformer_blocks.0.attn1.to_v/aten::linear/MatMul" type="MatMul" version="opset1">
			<data transpose_a="false" transpose_b="true" />
			<input>
				<port id="0" precision="FP32">
					<dim>-1</dim>
					<dim>-1</dim>
					<dim>-1</dim>
				</port>
				<port id="1" precision="FP32">
					<dim>1536</dim>
					<dim>2048</dim>
				</port>
			</input>
			<output>
				<port id="2" precision="FP32">
					<dim>-1</dim>
					<dim>-1</dim>
					<dim>1536</dim>
				</port>
			</output>
		</layer>
		<layer id="181" name="Constant_110721_compressed" type="Const" version="opset1">
			<data element_type="f16" shape="1, 1, 1536" offset="52861814" size="3072" />
			<output>
				<port id="0" precision="FP16">
					<dim>1</dim>
					<dim>1</dim>
					<dim>1536</dim>
				</port>
			</output>
		</layer>
		<layer id="182" name="Constant_110721" type="Convert" version="opset1">
			<data destination_type="f32" />
			<rt_info>
				<attribute name="decompression" version="0" />
			</rt_info>
			<input>
				<port id="0" precision="FP16">
					<dim>1</dim>
					<dim>1</dim>
					<dim>1536</dim>
				</port>
			</input>
			<output>
				<port id="1" precision="FP32">
					<dim>1</dim>
					<dim>1</dim>
					<dim>1536</dim>
				</port>
			</output>
		</layer>
		<layer id="183" name="__module.action_model.model.transformer_blocks.0.attn1.to_v/aten::linear/Add" type="Add" version="opset1">
			<data auto_broadcast="numpy" />
			<input>
				<port id="0" precision="FP32">
					<dim>-1</dim>
					<dim>-1</dim>
					<dim>1536</dim>
				</port>
				<port id="1" precision="FP32">
					<dim>1</dim>
					<dim>1</dim>
					<dim>1536</dim>
				</port>
			</input>
			<output>
				<port id="2" precision="FP32" names="2163,3769,5375,557,value.1,value.129,value.193,value.65">
					<dim>-1</dim>
					<dim>-1</dim>
					<dim>1536</dim>
				</port>
			</output>
		</layer>
		<layer id="184" name="Constant_116556" type="Const" version="opset1">
			<data element_type="i64" shape="4" offset="40275782" size="32" />
			<rt_info>
				<attribute name="precise" version="0" />
			</rt_info>
			<output>
				<port id="0" precision="I64">
					<dim>4</dim>
				</port>
			</output>
		</layer>
		<layer id="185" name="__module.action_model.model.transformer_blocks.0.attn1/aten::view/Reshape_2" type="Reshape" version="opset1">
			<data special_zero="true" />
			<input>
				<port id="0" precision="FP32">
					<dim>-1</dim>
					<dim>-1</dim>
					<dim>1536</dim>
				</port>
				<port id="1" precision="I64">
					<dim>4</dim>
				</port>
			</input>
			<output>
				<port id="2" precision="FP32" names="2177,3783,5389,571">
					<dim>-1</dim>
					<dim>-1</dim>
					<dim>32</dim>
					<dim>48</dim>
				</port>
			</output>
		</layer>
		<layer id="186" name="__module.action_model.model.transformer_blocks.0.attn1/aten::transpose/Constant_2" type="Const" version="opset1">
			<data element_type="i32" shape="4" offset="40275814" size="16" />
			<output>
				<port id="0" precision="I32">
					<dim>4</dim>
				</port>
			</output>
		</layer>
		<layer id="187" name="__module.action_model.model.transformer_blocks.0.attn1/aten::transpose/Transpose_2" type="Transpose" version="opset1">
			<input>
				<port id="0" precision="FP32">
					<dim>-1</dim>
					<dim>-1</dim>
					<dim>32</dim>
					<dim>48</dim>
				</port>
				<port id="1" precision="I32">
					<dim>4</dim>
				</port>
			</input>
			<output>
				<port id="2" precision="FP32" names="2178,3784,5390,572,value.131,value.195,value.3,value.67">
					<dim>-1</dim>
					<dim>32</dim>
					<dim>-1</dim>
					<dim>48</dim>
				</port>
			</output>
		</layer>
		<layer id="188" name="__module.action_model.model.transformer_blocks.0.attn1/aten::scaled_dot_product_attention/ScaledDotProductAttention" type="ScaledDotProductAttention" version="opset13">
			<data causal="false" />
			<input>
				<port id="0" precision="FP32">
					<dim>-1</dim>
					<dim>32</dim>
					<dim>-1</dim>
					<dim>48</dim>
				</port>
				<port id="1" precision="FP32">
					<dim>-1</dim>
					<dim>32</dim>
					<dim>-1</dim>
					<dim>48</dim>
				</port>
				<port id="2" precision="FP32">
					<dim>-1</dim>
					<dim>32</dim>
					<dim>-1</dim>
					<dim>48</dim>
				</port>
			</input>
			<output>
				<port id="3" precision="FP32" names="573,hidden_states.3">
					<dim>-1</dim>
					<dim>32</dim>
					<dim>-1</dim>
					<dim>48</dim>
				</port>
			</output>
		</layer>
		<layer id="189" name="__module.action_model.model.transformer_blocks.0.attn1/aten::transpose/Constant_3" type="Const" version="opset1">
			<data element_type="i32" shape="4" offset="40275814" size="16" />
			<output>
				<port id="0" precision="I32">
					<dim>4</dim>
				</port>
			</output>
		</layer>
		<layer id="190" name="__module.action_model.model.transformer_blocks.0.attn1/aten::transpose/Transpose_3" type="Transpose" version="opset1">
			<input>
				<port id="0" precision="FP32">
					<dim>-1</dim>
					<dim>32</dim>
					<dim>-1</dim>
					<dim>48</dim>
				</port>
				<port id="1" precision="I32">
					<dim>4</dim>
				</port>
			</input>
			<output>
				<port id="2" precision="FP32" names="574">
					<dim>-1</dim>
					<dim>-1</dim>
					<dim>32</dim>
					<dim>48</dim>
				</port>
			</output>
		</layer>
		<layer id="191" name="Constant_116557" type="Const" version="opset1">
			<data element_type="i64" shape="3" offset="52864886" size="24" />
			<rt_info>
				<attribute name="precise" version="0" />
			</rt_info>
			<output>
				<port id="0" precision="I64">
					<dim>3</dim>
				</port>
			</output>
		</layer>
		<layer id="192" name="__module.action_model.model.transformer_blocks.0.attn1/aten::reshape/Reshape" type="Reshape" version="opset1">
			<data special_zero="true" />
			<input>
				<port id="0" precision="FP32">
					<dim>-1</dim>
					<dim>-1</dim>
					<dim>32</dim>
					<dim>48</dim>
				</port>
				<port id="1" precision="I64">
					<dim>3</dim>
				</port>
			</input>
			<output>
				<port id="2" precision="FP32" names="578,579,hidden_states.5,input.25">
					<dim>-1</dim>
					<dim>-1</dim>
					<dim>1536</dim>
				</port>
			</output>
		</layer>
		<layer id="193" name="self.action_model.model.transformer_blocks.0.attn1.to_out.0.weight_compressed" type="Const" version="opset1">
			<data element_type="f16" shape="1536, 1536" offset="52864910" size="4718592" />
			<output>
				<port id="0" precision="FP16" names="self.action_model.model.transformer_blocks.0.attn1.to_out.0.weight">
					<dim>1536</dim>
					<dim>1536</dim>
				</port>
			</output>
		</layer>
		<layer id="194" name="self.action_model.model.transformer_blocks.0.attn1.to_out.0.weight" type="Convert" version="opset1">
			<data destination_type="f32" />
			<rt_info>
				<attribute name="decompression" version="0" />
			</rt_info>
			<input>
				<port id="0" precision="FP16">
					<dim>1536</dim>
					<dim>1536</dim>
				</port>
			</input>
			<output>
				<port id="1" precision="FP32">
					<dim>1536</dim>
					<dim>1536</dim>
				</port>
			</output>
		</layer>
		<layer id="195" name="__module.action_model.model.transformer_blocks.0.attn1.to_out.0/aten::linear/MatMul" type="MatMul" version="opset1">
			<data transpose_a="false" transpose_b="true" />
			<input>
				<port id="0" precision="FP32">
					<dim>-1</dim>
					<dim>-1</dim>
					<dim>1536</dim>
				</port>
				<port id="1" precision="FP32">
					<dim>1536</dim>
					<dim>1536</dim>
				</port>
			</input>
			<output>
				<port id="2" precision="FP32">
					<dim>-1</dim>
					<dim>-1</dim>
					<dim>1536</dim>
				</port>
			</output>
		</layer>
		<layer id="196" name="Constant_110722_compressed" type="Const" version="opset1">
			<data element_type="f16" shape="1, 1, 1536" offset="57583502" size="3072" />
			<output>
				<port id="0" precision="FP16">
					<dim>1</dim>
					<dim>1</dim>
					<dim>1536</dim>
				</port>
			</output>
		</layer>
		<layer id="197" name="Constant_110722" type="Convert" version="opset1">
			<data destination_type="f32" />
			<rt_info>
				<attribute name="decompression" version="0" />
			</rt_info>
			<input>
				<port id="0" precision="FP16">
					<dim>1</dim>
					<dim>1</dim>
					<dim>1536</dim>
				</port>
			</input>
			<output>
				<port id="1" precision="FP32">
					<dim>1</dim>
					<dim>1</dim>
					<dim>1536</dim>
				</port>
			</output>
		</layer>
		<layer id="198" name="__module.action_model.model.transformer_blocks.0.attn1.to_out.0/aten::linear/Add" type="Add" version="opset1">
			<data auto_broadcast="numpy" />
			<input>
				<port id="0" precision="FP32">
					<dim>-1</dim>
					<dim>-1</dim>
					<dim>1536</dim>
				</port>
				<port id="1" precision="FP32">
					<dim>1</dim>
					<dim>1</dim>
					<dim>1536</dim>
				</port>
			</input>
			<output>
				<port id="2" precision="FP32" names="582,584,input.27,input.29">
					<dim>-1</dim>
					<dim>-1</dim>
					<dim>1536</dim>
				</port>
			</output>
		</layer>
		<layer id="199" name="__module.action_model.model.transformer_blocks.0/aten::add/Add" type="Add" version="opset1">
			<data auto_broadcast="numpy" />
			<input>
				<port id="0" precision="FP32">
					<dim>-1</dim>
					<dim>-1</dim>
					<dim>1536</dim>
				</port>
				<port id="1" precision="FP32">
					<dim>-1</dim>
					<dim>-1</dim>
					<dim>1536</dim>
				</port>
			</input>
			<output>
				<port id="2" precision="FP32" names="586,input.31">
					<dim>-1</dim>
					<dim>-1</dim>
					<dim>1536</dim>
				</port>
			</output>
		</layer>
		<layer id="200" name="__module.action_model.model.transformer_blocks.0.norm3/aten::layer_norm/Multiply" type="Const" version="opset1">
			<data element_type="i32" shape="1" offset="3290148" size="4" />
			<output>
				<port id="0" precision="I32">
					<dim>1</dim>
				</port>
			</output>
		</layer>
		<layer id="201" name="__module.action_model.model.transformer_blocks.0.norm3/aten::layer_norm/MVN" type="MVN" version="opset6">
			<data eps="9.9999997473787516e-06" normalize_variance="true" eps_mode="INSIDE_SQRT" />
			<input>
				<port id="0" precision="FP32">
					<dim>-1</dim>
					<dim>-1</dim>
					<dim>1536</dim>
				</port>
				<port id="1" precision="I32">
					<dim>1</dim>
				</port>
			</input>
			<output>
				<port id="2" precision="FP32" names="588,input.33">
					<dim>-1</dim>
					<dim>-1</dim>
					<dim>1536</dim>
				</port>
			</output>
		</layer>
		<layer id="202" name="self.action_model.model.transformer_blocks.0.ff.net.0.proj.weight_compressed" type="Const" version="opset1">
			<data element_type="f16" shape="6144, 1536" offset="57586574" size="18874368" />
			<output>
				<port id="0" precision="FP16" names="self.action_model.model.transformer_blocks.0.ff.net.0.proj.weight">
					<dim>6144</dim>
					<dim>1536</dim>
				</port>
			</output>
		</layer>
		<layer id="203" name="self.action_model.model.transformer_blocks.0.ff.net.0.proj.weight" type="Convert" version="opset1">
			<data destination_type="f32" />
			<rt_info>
				<attribute name="decompression" version="0" />
			</rt_info>
			<input>
				<port id="0" precision="FP16">
					<dim>6144</dim>
					<dim>1536</dim>
				</port>
			</input>
			<output>
				<port id="1" precision="FP32">
					<dim>6144</dim>
					<dim>1536</dim>
				</port>
			</output>
		</layer>
		<layer id="204" name="__module.action_model.model.transformer_blocks.0.ff.net.0.proj/aten::linear/MatMul" type="MatMul" version="opset1">
			<data transpose_a="false" transpose_b="true" />
			<input>
				<port id="0" precision="FP32">
					<dim>-1</dim>
					<dim>-1</dim>
					<dim>1536</dim>
				</port>
				<port id="1" precision="FP32">
					<dim>6144</dim>
					<dim>1536</dim>
				</port>
			</input>
			<output>
				<port id="2" precision="FP32">
					<dim>-1</dim>
					<dim>-1</dim>
					<dim>6144</dim>
				</port>
			</output>
		</layer>
		<layer id="205" name="Constant_110723_compressed" type="Const" version="opset1">
			<data element_type="f16" shape="1, 1, 6144" offset="76460942" size="12288" />
			<output>
				<port id="0" precision="FP16">
					<dim>1</dim>
					<dim>1</dim>
					<dim>6144</dim>
				</port>
			</output>
		</layer>
		<layer id="206" name="Constant_110723" type="Convert" version="opset1">
			<data destination_type="f32" />
			<rt_info>
				<attribute name="decompression" version="0" />
			</rt_info>
			<input>
				<port id="0" precision="FP16">
					<dim>1</dim>
					<dim>1</dim>
					<dim>6144</dim>
				</port>
			</input>
			<output>
				<port id="1" precision="FP32">
					<dim>1</dim>
					<dim>1</dim>
					<dim>6144</dim>
				</port>
			</output>
		</layer>
		<layer id="207" name="__module.action_model.model.transformer_blocks.0.ff.net.0.proj/aten::linear/Add" type="Add" version="opset1">
			<data auto_broadcast="numpy" />
			<input>
				<port id="0" precision="FP32">
					<dim>-1</dim>
					<dim>-1</dim>
					<dim>6144</dim>
				</port>
				<port id="1" precision="FP32">
					<dim>1</dim>
					<dim>1</dim>
					<dim>6144</dim>
				</port>
			</input>
			<output>
				<port id="2" precision="FP32" names="600,gate.1">
					<dim>-1</dim>
					<dim>-1</dim>
					<dim>6144</dim>
				</port>
			</output>
		</layer>
		<layer id="208" name="__module.action_model.model.transformer_blocks.0.ff.net.0/aten::gelu/Gelu" type="Gelu" version="opset7">
			<data approximation_mode="TANH" />
			<input>
				<port id="0" precision="FP32">
					<dim>-1</dim>
					<dim>-1</dim>
					<dim>6144</dim>
				</port>
			</input>
			<output>
				<port id="1" precision="FP32" names="601,input.35">
					<dim>-1</dim>
					<dim>-1</dim>
					<dim>6144</dim>
				</port>
			</output>
		</layer>
		<layer id="209" name="self.action_model.model.transformer_blocks.0.ff.net.2.weight_compressed" type="Const" version="opset1">
			<data element_type="f16" shape="1536, 6144" offset="76473230" size="18874368" />
			<output>
				<port id="0" precision="FP16" names="self.action_model.model.transformer_blocks.0.ff.net.2.weight">
					<dim>1536</dim>
					<dim>6144</dim>
				</port>
			</output>
		</layer>
		<layer id="210" name="self.action_model.model.transformer_blocks.0.ff.net.2.weight" type="Convert" version="opset1">
			<data destination_type="f32" />
			<rt_info>
				<attribute name="decompression" version="0" />
			</rt_info>
			<input>
				<port id="0" precision="FP16">
					<dim>1536</dim>
					<dim>6144</dim>
				</port>
			</input>
			<output>
				<port id="1" precision="FP32">
					<dim>1536</dim>
					<dim>6144</dim>
				</port>
			</output>
		</layer>
		<layer id="211" name="__module.action_model.model.transformer_blocks.0.ff.net.2/aten::linear/MatMul" type="MatMul" version="opset1">
			<data transpose_a="false" transpose_b="true" />
			<input>
				<port id="0" precision="FP32">
					<dim>-1</dim>
					<dim>-1</dim>
					<dim>6144</dim>
				</port>
				<port id="1" precision="FP32">
					<dim>1536</dim>
					<dim>6144</dim>
				</port>
			</input>
			<output>
				<port id="2" precision="FP32">
					<dim>-1</dim>
					<dim>-1</dim>
					<dim>1536</dim>
				</port>
			</output>
		</layer>
		<layer id="212" name="Constant_110724_compressed" type="Const" version="opset1">
			<data element_type="f16" shape="1, 1, 1536" offset="95347598" size="3072" />
			<output>
				<port id="0" precision="FP16">
					<dim>1</dim>
					<dim>1</dim>
					<dim>1536</dim>
				</port>
			</output>
		</layer>
		<layer id="213" name="Constant_110724" type="Convert" version="opset1">
			<data destination_type="f32" />
			<rt_info>
				<attribute name="decompression" version="0" />
			</rt_info>
			<input>
				<port id="0" precision="FP16">
					<dim>1</dim>
					<dim>1</dim>
					<dim>1536</dim>
				</port>
			</input>
			<output>
				<port id="1" precision="FP32">
					<dim>1</dim>
					<dim>1</dim>
					<dim>1536</dim>
				</port>
			</output>
		</layer>
		<layer id="214" name="__module.action_model.model.transformer_blocks.0.ff.net.2/aten::linear/Add" type="Add" version="opset1">
			<data auto_broadcast="numpy" />
			<input>
				<port id="0" precision="FP32">
					<dim>-1</dim>
					<dim>-1</dim>
					<dim>1536</dim>
				</port>
				<port id="1" precision="FP32">
					<dim>1</dim>
					<dim>1</dim>
					<dim>1536</dim>
				</port>
			</input>
			<output>
				<port id="2" precision="FP32" names="605,input.39">
					<dim>-1</dim>
					<dim>-1</dim>
					<dim>1536</dim>
				</port>
			</output>
		</layer>
		<layer id="215" name="__module.action_model.model.transformer_blocks.0/aten::add/Add_1" type="Add" version="opset1">
			<data auto_broadcast="numpy" />
			<input>
				<port id="0" precision="FP32">
					<dim>-1</dim>
					<dim>-1</dim>
					<dim>1536</dim>
				</port>
				<port id="1" precision="FP32">
					<dim>-1</dim>
					<dim>-1</dim>
					<dim>1536</dim>
				</port>
			</input>
			<output>
				<port id="2" precision="FP32" names="607,input.43">
					<dim>-1</dim>
					<dim>-1</dim>
					<dim>1536</dim>
				</port>
			</output>
		</layer>
		<layer id="216" name="__module.action_model.model.transformer_blocks.1.norm1.norm/aten::layer_norm/Multiply" type="Const" version="opset1">
			<data element_type="i32" shape="1" offset="3290148" size="4" />
			<output>
				<port id="0" precision="I32">
					<dim>1</dim>
				</port>
			</output>
		</layer>
		<layer id="217" name="__module.action_model.model.transformer_blocks.1.norm1.norm/aten::layer_norm/MVN" type="MVN" version="opset6">
			<data eps="9.9999997473787516e-06" normalize_variance="true" eps_mode="INSIDE_SQRT" />
			<input>
				<port id="0" precision="FP32">
					<dim>-1</dim>
					<dim>-1</dim>
					<dim>1536</dim>
				</port>
				<port id="1" precision="I32">
					<dim>1</dim>
				</port>
			</input>
			<output>
				<port id="2" precision="FP32" names="624">
					<dim>-1</dim>
					<dim>-1</dim>
					<dim>1536</dim>
				</port>
			</output>
		</layer>
		<layer id="218" name="self.action_model.model.transformer_blocks.1.norm1.linear.weight_compressed" type="Const" version="opset1">
			<data element_type="f16" shape="3072, 1536" offset="95350670" size="9437184" />
			<output>
				<port id="0" precision="FP16" names="self.action_model.model.transformer_blocks.1.norm1.linear.weight">
					<dim>3072</dim>
					<dim>1536</dim>
				</port>
			</output>
		</layer>
		<layer id="219" name="self.action_model.model.transformer_blocks.1.norm1.linear.weight" type="Convert" version="opset1">
			<data destination_type="f32" />
			<rt_info>
				<attribute name="decompression" version="0" />
			</rt_info>
			<input>
				<port id="0" precision="FP16">
					<dim>3072</dim>
					<dim>1536</dim>
				</port>
			</input>
			<output>
				<port id="1" precision="FP32">
					<dim>3072</dim>
					<dim>1536</dim>
				</port>
			</output>
		</layer>
		<layer id="220" name="__module.action_model.model.transformer_blocks.1.norm1.linear/aten::linear/MatMul" type="MatMul" version="opset1">
			<data transpose_a="false" transpose_b="true" />
			<input>
				<port id="0" precision="FP32">
					<dim>-1</dim>
					<dim>1536</dim>
				</port>
				<port id="1" precision="FP32">
					<dim>3072</dim>
					<dim>1536</dim>
				</port>
			</input>
			<output>
				<port id="2" precision="FP32">
					<dim>-1</dim>
					<dim>3072</dim>
				</port>
			</output>
		</layer>
		<layer id="221" name="Constant_110725_compressed" type="Const" version="opset1">
			<data element_type="f16" shape="1, 3072" offset="104787854" size="6144" />
			<output>
				<port id="0" precision="FP16">
					<dim>1</dim>
					<dim>3072</dim>
				</port>
			</output>
		</layer>
		<layer id="222" name="Constant_110725" type="Convert" version="opset1">
			<data destination_type="f32" />
			<rt_info>
				<attribute name="decompression" version="0" />
			</rt_info>
			<input>
				<port id="0" precision="FP16">
					<dim>1</dim>
					<dim>3072</dim>
				</port>
			</input>
			<output>
				<port id="1" precision="FP32">
					<dim>1</dim>
					<dim>3072</dim>
				</port>
			</output>
		</layer>
		<layer id="223" name="__module.action_model.model.transformer_blocks.1.norm1.linear/aten::linear/Add" type="Add" version="opset1">
			<data auto_broadcast="numpy" />
			<input>
				<port id="0" precision="FP32">
					<dim>-1</dim>
					<dim>3072</dim>
				</port>
				<port id="1" precision="FP32">
					<dim>1</dim>
					<dim>3072</dim>
				</port>
			</input>
			<output>
				<port id="2" precision="FP32" names="619,temb.3">
					<dim>-1</dim>
					<dim>3072</dim>
				</port>
			</output>
		</layer>
		<layer id="224" name="__module.action_model.model.transformer_blocks.1.norm1/prim::ListUnpack/VariadicSplit" type="VariadicSplit" version="opset1">
			<input>
				<port id="0" precision="FP32">
					<dim>-1</dim>
					<dim>3072</dim>
				</port>
				<port id="1" precision="I64" />
				<port id="2" precision="I32">
					<dim>2</dim>
				</port>
			</input>
			<output>
				<port id="3" precision="FP32" names="621,625,scale.3">
					<dim>-1</dim>
					<dim>1536</dim>
				</port>
				<port id="4" precision="FP32" names="622,629,shift.3">
					<dim>-1</dim>
					<dim>1536</dim>
				</port>
			</output>
		</layer>
		<layer id="225" name="__module.action_model.model.transformer_blocks.1.norm1/aten::unsqueeze/Unsqueeze" type="Unsqueeze" version="opset1">
			<input>
				<port id="0" precision="FP32">
					<dim>-1</dim>
					<dim>1536</dim>
				</port>
				<port id="1" precision="I64" />
			</input>
			<output>
				<port id="2" precision="FP32" names="626">
					<dim>-1</dim>
					<dim>1</dim>
					<dim>1536</dim>
				</port>
			</output>
		</layer>
		<layer id="226" name="Constant_110726_compressed" type="Const" version="opset1">
			<data element_type="f16" shape="1, 1, 1" offset="35554116" size="2" />
			<output>
				<port id="0" precision="FP16">
					<dim>1</dim>
					<dim>1</dim>
					<dim>1</dim>
				</port>
			</output>
		</layer>
		<layer id="227" name="Constant_110726" type="Convert" version="opset1">
			<data destination_type="f32" />
			<rt_info>
				<attribute name="decompression" version="0" />
			</rt_info>
			<input>
				<port id="0" precision="FP16">
					<dim>1</dim>
					<dim>1</dim>
					<dim>1</dim>
				</port>
			</input>
			<output>
				<port id="1" precision="FP32">
					<dim>1</dim>
					<dim>1</dim>
					<dim>1</dim>
				</port>
			</output>
		</layer>
		<layer id="228" name="__module.action_model.model.transformer_blocks.1.norm1/aten::add/Add" type="Add" version="opset1">
			<data auto_broadcast="numpy" />
			<input>
				<port id="0" precision="FP32">
					<dim>-1</dim>
					<dim>1</dim>
					<dim>1536</dim>
				</port>
				<port id="1" precision="FP32">
					<dim>1</dim>
					<dim>1</dim>
					<dim>1</dim>
				</port>
			</input>
			<output>
				<port id="2" precision="FP32" names="627">
					<dim>-1</dim>
					<dim>1</dim>
					<dim>1536</dim>
				</port>
			</output>
		</layer>
		<layer id="229" name="__module.action_model.model.transformer_blocks.1.norm1/aten::mul/Multiply" type="Multiply" version="opset1">
			<data auto_broadcast="numpy" />
			<input>
				<port id="0" precision="FP32">
					<dim>-1</dim>
					<dim>-1</dim>
					<dim>1536</dim>
				</port>
				<port id="1" precision="FP32">
					<dim>-1</dim>
					<dim>1</dim>
					<dim>1536</dim>
				</port>
			</input>
			<output>
				<port id="2" precision="FP32" names="628">
					<dim>-1</dim>
					<dim>-1</dim>
					<dim>1536</dim>
				</port>
			</output>
		</layer>
		<layer id="230" name="__module.action_model.model.transformer_blocks.1.norm1/aten::unsqueeze/Unsqueeze_1" type="Unsqueeze" version="opset1">
			<input>
				<port id="0" precision="FP32">
					<dim>-1</dim>
					<dim>1536</dim>
				</port>
				<port id="1" precision="I64" />
			</input>
			<output>
				<port id="2" precision="FP32" names="630">
					<dim>-1</dim>
					<dim>1</dim>
					<dim>1536</dim>
				</port>
			</output>
		</layer>
		<layer id="231" name="__module.action_model.model.transformer_blocks.1.norm1/aten::add/Add_1" type="Add" version="opset1">
			<data auto_broadcast="numpy" />
			<input>
				<port id="0" precision="FP32">
					<dim>-1</dim>
					<dim>-1</dim>
					<dim>1536</dim>
				</port>
				<port id="1" precision="FP32">
					<dim>-1</dim>
					<dim>1</dim>
					<dim>1536</dim>
				</port>
			</input>
			<output>
				<port id="2" precision="FP32" names="631,hidden_states.9">
					<dim>-1</dim>
					<dim>-1</dim>
					<dim>1536</dim>
				</port>
			</output>
		</layer>
		<layer id="232" name="self.action_model.model.transformer_blocks.1.attn1.to_q.weight_compressed" type="Const" version="opset1">
			<data element_type="f16" shape="1536, 1536" offset="104793998" size="4718592" />
			<output>
				<port id="0" precision="FP16" names="self.action_model.model.transformer_blocks.1.attn1.to_q.weight">
					<dim>1536</dim>
					<dim>1536</dim>
				</port>
			</output>
		</layer>
		<layer id="233" name="self.action_model.model.transformer_blocks.1.attn1.to_q.weight" type="Convert" version="opset1">
			<data destination_type="f32" />
			<rt_info>
				<attribute name="decompression" version="0" />
			</rt_info>
			<input>
				<port id="0" precision="FP16">
					<dim>1536</dim>
					<dim>1536</dim>
				</port>
			</input>
			<output>
				<port id="1" precision="FP32">
					<dim>1536</dim>
					<dim>1536</dim>
				</port>
			</output>
		</layer>
		<layer id="234" name="__module.action_model.model.transformer_blocks.1.attn1.to_q/aten::linear/MatMul" type="MatMul" version="opset1">
			<data transpose_a="false" transpose_b="true" />
			<input>
				<port id="0" precision="FP32">
					<dim>-1</dim>
					<dim>-1</dim>
					<dim>1536</dim>
				</port>
				<port id="1" precision="FP32">
					<dim>1536</dim>
					<dim>1536</dim>
				</port>
			</input>
			<output>
				<port id="2" precision="FP32">
					<dim>-1</dim>
					<dim>-1</dim>
					<dim>1536</dim>
				</port>
			</output>
		</layer>
		<layer id="235" name="Constant_110727_compressed" type="Const" version="opset1">
			<data element_type="f16" shape="1, 1, 1536" offset="109512590" size="3072" />
			<output>
				<port id="0" precision="FP16">
					<dim>1</dim>
					<dim>1</dim>
					<dim>1536</dim>
				</port>
			</output>
		</layer>
		<layer id="236" name="Constant_110727" type="Convert" version="opset1">
			<data destination_type="f32" />
			<rt_info>
				<attribute name="decompression" version="0" />
			</rt_info>
			<input>
				<port id="0" precision="FP16">
					<dim>1</dim>
					<dim>1</dim>
					<dim>1536</dim>
				</port>
			</input>
			<output>
				<port id="1" precision="FP32">
					<dim>1</dim>
					<dim>1</dim>
					<dim>1536</dim>
				</port>
			</output>
		</layer>
		<layer id="237" name="__module.action_model.model.transformer_blocks.1.attn1.to_q/aten::linear/Add" type="Add" version="opset1">
			<data auto_broadcast="numpy" />
			<input>
				<port id="0" precision="FP32">
					<dim>-1</dim>
					<dim>-1</dim>
					<dim>1536</dim>
				</port>
				<port id="1" precision="FP32">
					<dim>1</dim>
					<dim>1</dim>
					<dim>1536</dim>
				</port>
			</input>
			<output>
				<port id="2" precision="FP32" names="640,query.5">
					<dim>-1</dim>
					<dim>-1</dim>
					<dim>1536</dim>
				</port>
			</output>
		</layer>
		<layer id="238" name="Constant_116558" type="Const" version="opset1">
			<data element_type="i64" shape="4" offset="40275782" size="32" />
			<rt_info>
				<attribute name="precise" version="0" />
			</rt_info>
			<output>
				<port id="0" precision="I64">
					<dim>4</dim>
				</port>
			</output>
		</layer>
		<layer id="239" name="__module.action_model.model.transformer_blocks.1.attn1/aten::view/Reshape" type="Reshape" version="opset1">
			<data special_zero="true" />
			<input>
				<port id="0" precision="FP32">
					<dim>-1</dim>
					<dim>-1</dim>
					<dim>1536</dim>
				</port>
				<port id="1" precision="I64">
					<dim>4</dim>
				</port>
			</input>
			<output>
				<port id="2" precision="FP32" names="654">
					<dim>-1</dim>
					<dim>-1</dim>
					<dim>32</dim>
					<dim>48</dim>
				</port>
			</output>
		</layer>
		<layer id="240" name="__module.action_model.model.transformer_blocks.1.attn1/aten::transpose/Constant" type="Const" version="opset1">
			<data element_type="i32" shape="4" offset="40275814" size="16" />
			<output>
				<port id="0" precision="I32">
					<dim>4</dim>
				</port>
			</output>
		</layer>
		<layer id="241" name="__module.action_model.model.transformer_blocks.1.attn1/aten::transpose/Transpose" type="Transpose" version="opset1">
			<input>
				<port id="0" precision="FP32">
					<dim>-1</dim>
					<dim>-1</dim>
					<dim>32</dim>
					<dim>48</dim>
				</port>
				<port id="1" precision="I32">
					<dim>4</dim>
				</port>
			</input>
			<output>
				<port id="2" precision="FP32" names="655,query.7">
					<dim>-1</dim>
					<dim>32</dim>
					<dim>-1</dim>
					<dim>48</dim>
				</port>
			</output>
		</layer>
		<layer id="242" name="self.action_model.model.transformer_blocks.1.attn1.to_k.weight_compressed" type="Const" version="opset1">
			<data element_type="f16" shape="1536, 1536" offset="109515662" size="4718592" />
			<output>
				<port id="0" precision="FP16" names="self.action_model.model.transformer_blocks.1.attn1.to_k.weight">
					<dim>1536</dim>
					<dim>1536</dim>
				</port>
			</output>
		</layer>
		<layer id="243" name="self.action_model.model.transformer_blocks.1.attn1.to_k.weight" type="Convert" version="opset1">
			<data destination_type="f32" />
			<rt_info>
				<attribute name="decompression" version="0" />
			</rt_info>
			<input>
				<port id="0" precision="FP16">
					<dim>1536</dim>
					<dim>1536</dim>
				</port>
			</input>
			<output>
				<port id="1" precision="FP32">
					<dim>1536</dim>
					<dim>1536</dim>
				</port>
			</output>
		</layer>
		<layer id="244" name="__module.action_model.model.transformer_blocks.1.attn1.to_k/aten::linear/MatMul" type="MatMul" version="opset1">
			<data transpose_a="false" transpose_b="true" />
			<input>
				<port id="0" precision="FP32">
					<dim>-1</dim>
					<dim>-1</dim>
					<dim>1536</dim>
				</port>
				<port id="1" precision="FP32">
					<dim>1536</dim>
					<dim>1536</dim>
				</port>
			</input>
			<output>
				<port id="2" precision="FP32">
					<dim>-1</dim>
					<dim>-1</dim>
					<dim>1536</dim>
				</port>
			</output>
		</layer>
		<layer id="245" name="Constant_110728_compressed" type="Const" version="opset1">
			<data element_type="f16" shape="1, 1, 1536" offset="114234254" size="3072" />
			<output>
				<port id="0" precision="FP16">
					<dim>1</dim>
					<dim>1</dim>
					<dim>1536</dim>
				</port>
			</output>
		</layer>
		<layer id="246" name="Constant_110728" type="Convert" version="opset1">
			<data destination_type="f32" />
			<rt_info>
				<attribute name="decompression" version="0" />
			</rt_info>
			<input>
				<port id="0" precision="FP16">
					<dim>1</dim>
					<dim>1</dim>
					<dim>1536</dim>
				</port>
			</input>
			<output>
				<port id="1" precision="FP32">
					<dim>1</dim>
					<dim>1</dim>
					<dim>1536</dim>
				</port>
			</output>
		</layer>
		<layer id="247" name="__module.action_model.model.transformer_blocks.1.attn1.to_k/aten::linear/Add" type="Add" version="opset1">
			<data auto_broadcast="numpy" />
			<input>
				<port id="0" precision="FP32">
					<dim>-1</dim>
					<dim>-1</dim>
					<dim>1536</dim>
				</port>
				<port id="1" precision="FP32">
					<dim>1</dim>
					<dim>1</dim>
					<dim>1536</dim>
				</port>
			</input>
			<output>
				<port id="2" precision="FP32" names="643,key.5">
					<dim>-1</dim>
					<dim>-1</dim>
					<dim>1536</dim>
				</port>
			</output>
		</layer>
		<layer id="248" name="Constant_116559" type="Const" version="opset1">
			<data element_type="i64" shape="4" offset="40275782" size="32" />
			<rt_info>
				<attribute name="precise" version="0" />
			</rt_info>
			<output>
				<port id="0" precision="I64">
					<dim>4</dim>
				</port>
			</output>
		</layer>
		<layer id="249" name="__module.action_model.model.transformer_blocks.1.attn1/aten::view/Reshape_1" type="Reshape" version="opset1">
			<data special_zero="true" />
			<input>
				<port id="0" precision="FP32">
					<dim>-1</dim>
					<dim>-1</dim>
					<dim>1536</dim>
				</port>
				<port id="1" precision="I64">
					<dim>4</dim>
				</port>
			</input>
			<output>
				<port id="2" precision="FP32" names="657">
					<dim>-1</dim>
					<dim>-1</dim>
					<dim>32</dim>
					<dim>48</dim>
				</port>
			</output>
		</layer>
		<layer id="250" name="__module.action_model.model.transformer_blocks.1.attn1/aten::transpose/Constant_1" type="Const" version="opset1">
			<data element_type="i32" shape="4" offset="40275814" size="16" />
			<output>
				<port id="0" precision="I32">
					<dim>4</dim>
				</port>
			</output>
		</layer>
		<layer id="251" name="__module.action_model.model.transformer_blocks.1.attn1/aten::transpose/Transpose_1" type="Transpose" version="opset1">
			<input>
				<port id="0" precision="FP32">
					<dim>-1</dim>
					<dim>-1</dim>
					<dim>32</dim>
					<dim>48</dim>
				</port>
				<port id="1" precision="I32">
					<dim>4</dim>
				</port>
			</input>
			<output>
				<port id="2" precision="FP32" names="658,key.7">
					<dim>-1</dim>
					<dim>32</dim>
					<dim>-1</dim>
					<dim>48</dim>
				</port>
			</output>
		</layer>
		<layer id="252" name="self.action_model.model.transformer_blocks.1.attn1.to_v.weight_compressed" type="Const" version="opset1">
			<data element_type="f16" shape="1536, 1536" offset="114237326" size="4718592" />
			<output>
				<port id="0" precision="FP16" names="self.action_model.model.transformer_blocks.1.attn1.to_v.weight">
					<dim>1536</dim>
					<dim>1536</dim>
				</port>
			</output>
		</layer>
		<layer id="253" name="self.action_model.model.transformer_blocks.1.attn1.to_v.weight" type="Convert" version="opset1">
			<data destination_type="f32" />
			<rt_info>
				<attribute name="decompression" version="0" />
			</rt_info>
			<input>
				<port id="0" precision="FP16">
					<dim>1536</dim>
					<dim>1536</dim>
				</port>
			</input>
			<output>
				<port id="1" precision="FP32">
					<dim>1536</dim>
					<dim>1536</dim>
				</port>
			</output>
		</layer>
		<layer id="254" name="__module.action_model.model.transformer_blocks.1.attn1.to_v/aten::linear/MatMul" type="MatMul" version="opset1">
			<data transpose_a="false" transpose_b="true" />
			<input>
				<port id="0" precision="FP32">
					<dim>-1</dim>
					<dim>-1</dim>
					<dim>1536</dim>
				</port>
				<port id="1" precision="FP32">
					<dim>1536</dim>
					<dim>1536</dim>
				</port>
			</input>
			<output>
				<port id="2" precision="FP32">
					<dim>-1</dim>
					<dim>-1</dim>
					<dim>1536</dim>
				</port>
			</output>
		</layer>
		<layer id="255" name="Constant_110729_compressed" type="Const" version="opset1">
			<data element_type="f16" shape="1, 1, 1536" offset="118955918" size="3072" />
			<output>
				<port id="0" precision="FP16">
					<dim>1</dim>
					<dim>1</dim>
					<dim>1536</dim>
				</port>
			</output>
		</layer>
		<layer id="256" name="Constant_110729" type="Convert" version="opset1">
			<data destination_type="f32" />
			<rt_info>
				<attribute name="decompression" version="0" />
			</rt_info>
			<input>
				<port id="0" precision="FP16">
					<dim>1</dim>
					<dim>1</dim>
					<dim>1536</dim>
				</port>
			</input>
			<output>
				<port id="1" precision="FP32">
					<dim>1</dim>
					<dim>1</dim>
					<dim>1536</dim>
				</port>
			</output>
		</layer>
		<layer id="257" name="__module.action_model.model.transformer_blocks.1.attn1.to_v/aten::linear/Add" type="Add" version="opset1">
			<data auto_broadcast="numpy" />
			<input>
				<port id="0" precision="FP32">
					<dim>-1</dim>
					<dim>-1</dim>
					<dim>1536</dim>
				</port>
				<port id="1" precision="FP32">
					<dim>1</dim>
					<dim>1</dim>
					<dim>1536</dim>
				</port>
			</input>
			<output>
				<port id="2" precision="FP32" names="646,value.5">
					<dim>-1</dim>
					<dim>-1</dim>
					<dim>1536</dim>
				</port>
			</output>
		</layer>
		<layer id="258" name="Constant_116560" type="Const" version="opset1">
			<data element_type="i64" shape="4" offset="40275782" size="32" />
			<rt_info>
				<attribute name="precise" version="0" />
			</rt_info>
			<output>
				<port id="0" precision="I64">
					<dim>4</dim>
				</port>
			</output>
		</layer>
		<layer id="259" name="__module.action_model.model.transformer_blocks.1.attn1/aten::view/Reshape_2" type="Reshape" version="opset1">
			<data special_zero="true" />
			<input>
				<port id="0" precision="FP32">
					<dim>-1</dim>
					<dim>-1</dim>
					<dim>1536</dim>
				</port>
				<port id="1" precision="I64">
					<dim>4</dim>
				</port>
			</input>
			<output>
				<port id="2" precision="FP32" names="660">
					<dim>-1</dim>
					<dim>-1</dim>
					<dim>32</dim>
					<dim>48</dim>
				</port>
			</output>
		</layer>
		<layer id="260" name="__module.action_model.model.transformer_blocks.1.attn1/aten::transpose/Constant_2" type="Const" version="opset1">
			<data element_type="i32" shape="4" offset="40275814" size="16" />
			<output>
				<port id="0" precision="I32">
					<dim>4</dim>
				</port>
			</output>
		</layer>
		<layer id="261" name="__module.action_model.model.transformer_blocks.1.attn1/aten::transpose/Transpose_2" type="Transpose" version="opset1">
			<input>
				<port id="0" precision="FP32">
					<dim>-1</dim>
					<dim>-1</dim>
					<dim>32</dim>
					<dim>48</dim>
				</port>
				<port id="1" precision="I32">
					<dim>4</dim>
				</port>
			</input>
			<output>
				<port id="2" precision="FP32" names="661,value.7">
					<dim>-1</dim>
					<dim>32</dim>
					<dim>-1</dim>
					<dim>48</dim>
				</port>
			</output>
		</layer>
		<layer id="262" name="__module.action_model.model.transformer_blocks.1.attn1/aten::scaled_dot_product_attention/ScaledDotProductAttention" type="ScaledDotProductAttention" version="opset13">
			<data causal="false" />
			<input>
				<port id="0" precision="FP32">
					<dim>-1</dim>
					<dim>32</dim>
					<dim>-1</dim>
					<dim>48</dim>
				</port>
				<port id="1" precision="FP32">
					<dim>-1</dim>
					<dim>32</dim>
					<dim>-1</dim>
					<dim>48</dim>
				</port>
				<port id="2" precision="FP32">
					<dim>-1</dim>
					<dim>32</dim>
					<dim>-1</dim>
					<dim>48</dim>
				</port>
			</input>
			<output>
				<port id="3" precision="FP32" names="662,hidden_states.11">
					<dim>-1</dim>
					<dim>32</dim>
					<dim>-1</dim>
					<dim>48</dim>
				</port>
			</output>
		</layer>
		<layer id="263" name="__module.action_model.model.transformer_blocks.1.attn1/aten::transpose/Constant_3" type="Const" version="opset1">
			<data element_type="i32" shape="4" offset="40275814" size="16" />
			<output>
				<port id="0" precision="I32">
					<dim>4</dim>
				</port>
			</output>
		</layer>
		<layer id="264" name="__module.action_model.model.transformer_blocks.1.attn1/aten::transpose/Transpose_3" type="Transpose" version="opset1">
			<input>
				<port id="0" precision="FP32">
					<dim>-1</dim>
					<dim>32</dim>
					<dim>-1</dim>
					<dim>48</dim>
				</port>
				<port id="1" precision="I32">
					<dim>4</dim>
				</port>
			</input>
			<output>
				<port id="2" precision="FP32" names="663">
					<dim>-1</dim>
					<dim>-1</dim>
					<dim>32</dim>
					<dim>48</dim>
				</port>
			</output>
		</layer>
		<layer id="265" name="Constant_116561" type="Const" version="opset1">
			<data element_type="i64" shape="3" offset="52864886" size="24" />
			<rt_info>
				<attribute name="precise" version="0" />
			</rt_info>
			<output>
				<port id="0" precision="I64">
					<dim>3</dim>
				</port>
			</output>
		</layer>
		<layer id="266" name="__module.action_model.model.transformer_blocks.1.attn1/aten::reshape/Reshape" type="Reshape" version="opset1">
			<data special_zero="true" />
			<input>
				<port id="0" precision="FP32">
					<dim>-1</dim>
					<dim>-1</dim>
					<dim>32</dim>
					<dim>48</dim>
				</port>
				<port id="1" precision="I64">
					<dim>3</dim>
				</port>
			</input>
			<output>
				<port id="2" precision="FP32" names="667,668,hidden_states.13,input.45">
					<dim>-1</dim>
					<dim>-1</dim>
					<dim>1536</dim>
				</port>
			</output>
		</layer>
		<layer id="267" name="self.action_model.model.transformer_blocks.1.attn1.to_out.0.weight_compressed" type="Const" version="opset1">
			<data element_type="f16" shape="1536, 1536" offset="118958990" size="4718592" />
			<output>
				<port id="0" precision="FP16" names="self.action_model.model.transformer_blocks.1.attn1.to_out.0.weight">
					<dim>1536</dim>
					<dim>1536</dim>
				</port>
			</output>
		</layer>
		<layer id="268" name="self.action_model.model.transformer_blocks.1.attn1.to_out.0.weight" type="Convert" version="opset1">
			<data destination_type="f32" />
			<rt_info>
				<attribute name="decompression" version="0" />
			</rt_info>
			<input>
				<port id="0" precision="FP16">
					<dim>1536</dim>
					<dim>1536</dim>
				</port>
			</input>
			<output>
				<port id="1" precision="FP32">
					<dim>1536</dim>
					<dim>1536</dim>
				</port>
			</output>
		</layer>
		<layer id="269" name="__module.action_model.model.transformer_blocks.1.attn1.to_out.0/aten::linear/MatMul" type="MatMul" version="opset1">
			<data transpose_a="false" transpose_b="true" />
			<input>
				<port id="0" precision="FP32">
					<dim>-1</dim>
					<dim>-1</dim>
					<dim>1536</dim>
				</port>
				<port id="1" precision="FP32">
					<dim>1536</dim>
					<dim>1536</dim>
				</port>
			</input>
			<output>
				<port id="2" precision="FP32">
					<dim>-1</dim>
					<dim>-1</dim>
					<dim>1536</dim>
				</port>
			</output>
		</layer>
		<layer id="270" name="Constant_110730_compressed" type="Const" version="opset1">
			<data element_type="f16" shape="1, 1, 1536" offset="123677582" size="3072" />
			<output>
				<port id="0" precision="FP16">
					<dim>1</dim>
					<dim>1</dim>
					<dim>1536</dim>
				</port>
			</output>
		</layer>
		<layer id="271" name="Constant_110730" type="Convert" version="opset1">
			<data destination_type="f32" />
			<rt_info>
				<attribute name="decompression" version="0" />
			</rt_info>
			<input>
				<port id="0" precision="FP16">
					<dim>1</dim>
					<dim>1</dim>
					<dim>1536</dim>
				</port>
			</input>
			<output>
				<port id="1" precision="FP32">
					<dim>1</dim>
					<dim>1</dim>
					<dim>1536</dim>
				</port>
			</output>
		</layer>
		<layer id="272" name="__module.action_model.model.transformer_blocks.1.attn1.to_out.0/aten::linear/Add" type="Add" version="opset1">
			<data auto_broadcast="numpy" />
			<input>
				<port id="0" precision="FP32">
					<dim>-1</dim>
					<dim>-1</dim>
					<dim>1536</dim>
				</port>
				<port id="1" precision="FP32">
					<dim>1</dim>
					<dim>1</dim>
					<dim>1536</dim>
				</port>
			</input>
			<output>
				<port id="2" precision="FP32" names="671,673,input.47,input.49">
					<dim>-1</dim>
					<dim>-1</dim>
					<dim>1536</dim>
				</port>
			</output>
		</layer>
		<layer id="273" name="__module.action_model.model.transformer_blocks.1/aten::add/Add" type="Add" version="opset1">
			<data auto_broadcast="numpy" />
			<input>
				<port id="0" precision="FP32">
					<dim>-1</dim>
					<dim>-1</dim>
					<dim>1536</dim>
				</port>
				<port id="1" precision="FP32">
					<dim>-1</dim>
					<dim>-1</dim>
					<dim>1536</dim>
				</port>
			</input>
			<output>
				<port id="2" precision="FP32" names="675,input.51">
					<dim>-1</dim>
					<dim>-1</dim>
					<dim>1536</dim>
				</port>
			</output>
		</layer>
		<layer id="274" name="__module.action_model.model.transformer_blocks.1.norm3/aten::layer_norm/Multiply" type="Const" version="opset1">
			<data element_type="i32" shape="1" offset="3290148" size="4" />
			<output>
				<port id="0" precision="I32">
					<dim>1</dim>
				</port>
			</output>
		</layer>
		<layer id="275" name="__module.action_model.model.transformer_blocks.1.norm3/aten::layer_norm/MVN" type="MVN" version="opset6">
			<data eps="9.9999997473787516e-06" normalize_variance="true" eps_mode="INSIDE_SQRT" />
			<input>
				<port id="0" precision="FP32">
					<dim>-1</dim>
					<dim>-1</dim>
					<dim>1536</dim>
				</port>
				<port id="1" precision="I32">
					<dim>1</dim>
				</port>
			</input>
			<output>
				<port id="2" precision="FP32" names="677,input.53">
					<dim>-1</dim>
					<dim>-1</dim>
					<dim>1536</dim>
				</port>
			</output>
		</layer>
		<layer id="276" name="self.action_model.model.transformer_blocks.1.ff.net.0.proj.weight_compressed" type="Const" version="opset1">
			<data element_type="f16" shape="6144, 1536" offset="123680654" size="18874368" />
			<output>
				<port id="0" precision="FP16" names="self.action_model.model.transformer_blocks.1.ff.net.0.proj.weight">
					<dim>6144</dim>
					<dim>1536</dim>
				</port>
			</output>
		</layer>
		<layer id="277" name="self.action_model.model.transformer_blocks.1.ff.net.0.proj.weight" type="Convert" version="opset1">
			<data destination_type="f32" />
			<rt_info>
				<attribute name="decompression" version="0" />
			</rt_info>
			<input>
				<port id="0" precision="FP16">
					<dim>6144</dim>
					<dim>1536</dim>
				</port>
			</input>
			<output>
				<port id="1" precision="FP32">
					<dim>6144</dim>
					<dim>1536</dim>
				</port>
			</output>
		</layer>
		<layer id="278" name="__module.action_model.model.transformer_blocks.1.ff.net.0.proj/aten::linear/MatMul" type="MatMul" version="opset1">
			<data transpose_a="false" transpose_b="true" />
			<input>
				<port id="0" precision="FP32">
					<dim>-1</dim>
					<dim>-1</dim>
					<dim>1536</dim>
				</port>
				<port id="1" precision="FP32">
					<dim>6144</dim>
					<dim>1536</dim>
				</port>
			</input>
			<output>
				<port id="2" precision="FP32">
					<dim>-1</dim>
					<dim>-1</dim>
					<dim>6144</dim>
				</port>
			</output>
		</layer>
		<layer id="279" name="Constant_110731_compressed" type="Const" version="opset1">
			<data element_type="f16" shape="1, 1, 6144" offset="142555022" size="12288" />
			<output>
				<port id="0" precision="FP16">
					<dim>1</dim>
					<dim>1</dim>
					<dim>6144</dim>
				</port>
			</output>
		</layer>
		<layer id="280" name="Constant_110731" type="Convert" version="opset1">
			<data destination_type="f32" />
			<rt_info>
				<attribute name="decompression" version="0" />
			</rt_info>
			<input>
				<port id="0" precision="FP16">
					<dim>1</dim>
					<dim>1</dim>
					<dim>6144</dim>
				</port>
			</input>
			<output>
				<port id="1" precision="FP32">
					<dim>1</dim>
					<dim>1</dim>
					<dim>6144</dim>
				</port>
			</output>
		</layer>
		<layer id="281" name="__module.action_model.model.transformer_blocks.1.ff.net.0.proj/aten::linear/Add" type="Add" version="opset1">
			<data auto_broadcast="numpy" />
			<input>
				<port id="0" precision="FP32">
					<dim>-1</dim>
					<dim>-1</dim>
					<dim>6144</dim>
				</port>
				<port id="1" precision="FP32">
					<dim>1</dim>
					<dim>1</dim>
					<dim>6144</dim>
				</port>
			</input>
			<output>
				<port id="2" precision="FP32" names="689,gate.3">
					<dim>-1</dim>
					<dim>-1</dim>
					<dim>6144</dim>
				</port>
			</output>
		</layer>
		<layer id="282" name="__module.action_model.model.transformer_blocks.1.ff.net.0/aten::gelu/Gelu" type="Gelu" version="opset7">
			<data approximation_mode="TANH" />
			<input>
				<port id="0" precision="FP32">
					<dim>-1</dim>
					<dim>-1</dim>
					<dim>6144</dim>
				</port>
			</input>
			<output>
				<port id="1" precision="FP32" names="690,input.55">
					<dim>-1</dim>
					<dim>-1</dim>
					<dim>6144</dim>
				</port>
			</output>
		</layer>
		<layer id="283" name="self.action_model.model.transformer_blocks.1.ff.net.2.weight_compressed" type="Const" version="opset1">
			<data element_type="f16" shape="1536, 6144" offset="142567310" size="18874368" />
			<output>
				<port id="0" precision="FP16" names="self.action_model.model.transformer_blocks.1.ff.net.2.weight">
					<dim>1536</dim>
					<dim>6144</dim>
				</port>
			</output>
		</layer>
		<layer id="284" name="self.action_model.model.transformer_blocks.1.ff.net.2.weight" type="Convert" version="opset1">
			<data destination_type="f32" />
			<rt_info>
				<attribute name="decompression" version="0" />
			</rt_info>
			<input>
				<port id="0" precision="FP16">
					<dim>1536</dim>
					<dim>6144</dim>
				</port>
			</input>
			<output>
				<port id="1" precision="FP32">
					<dim>1536</dim>
					<dim>6144</dim>
				</port>
			</output>
		</layer>
		<layer id="285" name="__module.action_model.model.transformer_blocks.1.ff.net.2/aten::linear/MatMul" type="MatMul" version="opset1">
			<data transpose_a="false" transpose_b="true" />
			<input>
				<port id="0" precision="FP32">
					<dim>-1</dim>
					<dim>-1</dim>
					<dim>6144</dim>
				</port>
				<port id="1" precision="FP32">
					<dim>1536</dim>
					<dim>6144</dim>
				</port>
			</input>
			<output>
				<port id="2" precision="FP32">
					<dim>-1</dim>
					<dim>-1</dim>
					<dim>1536</dim>
				</port>
			</output>
		</layer>
		<layer id="286" name="Constant_110732_compressed" type="Const" version="opset1">
			<data element_type="f16" shape="1, 1, 1536" offset="161441678" size="3072" />
			<output>
				<port id="0" precision="FP16">
					<dim>1</dim>
					<dim>1</dim>
					<dim>1536</dim>
				</port>
			</output>
		</layer>
		<layer id="287" name="Constant_110732" type="Convert" version="opset1">
			<data destination_type="f32" />
			<rt_info>
				<attribute name="decompression" version="0" />
			</rt_info>
			<input>
				<port id="0" precision="FP16">
					<dim>1</dim>
					<dim>1</dim>
					<dim>1536</dim>
				</port>
			</input>
			<output>
				<port id="1" precision="FP32">
					<dim>1</dim>
					<dim>1</dim>
					<dim>1536</dim>
				</port>
			</output>
		</layer>
		<layer id="288" name="__module.action_model.model.transformer_blocks.1.ff.net.2/aten::linear/Add" type="Add" version="opset1">
			<data auto_broadcast="numpy" />
			<input>
				<port id="0" precision="FP32">
					<dim>-1</dim>
					<dim>-1</dim>
					<dim>1536</dim>
				</port>
				<port id="1" precision="FP32">
					<dim>1</dim>
					<dim>1</dim>
					<dim>1536</dim>
				</port>
			</input>
			<output>
				<port id="2" precision="FP32" names="694,input.59">
					<dim>-1</dim>
					<dim>-1</dim>
					<dim>1536</dim>
				</port>
			</output>
		</layer>
		<layer id="289" name="__module.action_model.model.transformer_blocks.1/aten::add/Add_1" type="Add" version="opset1">
			<data auto_broadcast="numpy" />
			<input>
				<port id="0" precision="FP32">
					<dim>-1</dim>
					<dim>-1</dim>
					<dim>1536</dim>
				</port>
				<port id="1" precision="FP32">
					<dim>-1</dim>
					<dim>-1</dim>
					<dim>1536</dim>
				</port>
			</input>
			<output>
				<port id="2" precision="FP32" names="696,input.63">
					<dim>-1</dim>
					<dim>-1</dim>
					<dim>1536</dim>
				</port>
			</output>
		</layer>
		<layer id="290" name="__module.action_model.model.transformer_blocks.2.norm1.norm/aten::layer_norm/Multiply" type="Const" version="opset1">
			<data element_type="i32" shape="1" offset="3290148" size="4" />
			<output>
				<port id="0" precision="I32">
					<dim>1</dim>
				</port>
			</output>
		</layer>
		<layer id="291" name="__module.action_model.model.transformer_blocks.2.norm1.norm/aten::layer_norm/MVN" type="MVN" version="opset6">
			<data eps="9.9999997473787516e-06" normalize_variance="true" eps_mode="INSIDE_SQRT" />
			<input>
				<port id="0" precision="FP32">
					<dim>-1</dim>
					<dim>-1</dim>
					<dim>1536</dim>
				</port>
				<port id="1" precision="I32">
					<dim>1</dim>
				</port>
			</input>
			<output>
				<port id="2" precision="FP32" names="713">
					<dim>-1</dim>
					<dim>-1</dim>
					<dim>1536</dim>
				</port>
			</output>
		</layer>
		<layer id="292" name="self.action_model.model.transformer_blocks.2.norm1.linear.weight_compressed" type="Const" version="opset1">
			<data element_type="f16" shape="3072, 1536" offset="161444750" size="9437184" />
			<output>
				<port id="0" precision="FP16" names="self.action_model.model.transformer_blocks.2.norm1.linear.weight">
					<dim>3072</dim>
					<dim>1536</dim>
				</port>
			</output>
		</layer>
		<layer id="293" name="self.action_model.model.transformer_blocks.2.norm1.linear.weight" type="Convert" version="opset1">
			<data destination_type="f32" />
			<rt_info>
				<attribute name="decompression" version="0" />
			</rt_info>
			<input>
				<port id="0" precision="FP16">
					<dim>3072</dim>
					<dim>1536</dim>
				</port>
			</input>
			<output>
				<port id="1" precision="FP32">
					<dim>3072</dim>
					<dim>1536</dim>
				</port>
			</output>
		</layer>
		<layer id="294" name="__module.action_model.model.transformer_blocks.2.norm1.linear/aten::linear/MatMul" type="MatMul" version="opset1">
			<data transpose_a="false" transpose_b="true" />
			<input>
				<port id="0" precision="FP32">
					<dim>-1</dim>
					<dim>1536</dim>
				</port>
				<port id="1" precision="FP32">
					<dim>3072</dim>
					<dim>1536</dim>
				</port>
			</input>
			<output>
				<port id="2" precision="FP32">
					<dim>-1</dim>
					<dim>3072</dim>
				</port>
			</output>
		</layer>
		<layer id="295" name="Constant_110733_compressed" type="Const" version="opset1">
			<data element_type="f16" shape="1, 3072" offset="170881934" size="6144" />
			<output>
				<port id="0" precision="FP16">
					<dim>1</dim>
					<dim>3072</dim>
				</port>
			</output>
		</layer>
		<layer id="296" name="Constant_110733" type="Convert" version="opset1">
			<data destination_type="f32" />
			<rt_info>
				<attribute name="decompression" version="0" />
			</rt_info>
			<input>
				<port id="0" precision="FP16">
					<dim>1</dim>
					<dim>3072</dim>
				</port>
			</input>
			<output>
				<port id="1" precision="FP32">
					<dim>1</dim>
					<dim>3072</dim>
				</port>
			</output>
		</layer>
		<layer id="297" name="__module.action_model.model.transformer_blocks.2.norm1.linear/aten::linear/Add" type="Add" version="opset1">
			<data auto_broadcast="numpy" />
			<input>
				<port id="0" precision="FP32">
					<dim>-1</dim>
					<dim>3072</dim>
				</port>
				<port id="1" precision="FP32">
					<dim>1</dim>
					<dim>3072</dim>
				</port>
			</input>
			<output>
				<port id="2" precision="FP32" names="708,temb.5">
					<dim>-1</dim>
					<dim>3072</dim>
				</port>
			</output>
		</layer>
		<layer id="298" name="__module.action_model.model.transformer_blocks.2.norm1/prim::ListUnpack/VariadicSplit" type="VariadicSplit" version="opset1">
			<input>
				<port id="0" precision="FP32">
					<dim>-1</dim>
					<dim>3072</dim>
				</port>
				<port id="1" precision="I64" />
				<port id="2" precision="I32">
					<dim>2</dim>
				</port>
			</input>
			<output>
				<port id="3" precision="FP32" names="710,714,scale.5">
					<dim>-1</dim>
					<dim>1536</dim>
				</port>
				<port id="4" precision="FP32" names="711,718,shift.5">
					<dim>-1</dim>
					<dim>1536</dim>
				</port>
			</output>
		</layer>
		<layer id="299" name="__module.action_model.model.transformer_blocks.2.norm1/aten::unsqueeze/Unsqueeze" type="Unsqueeze" version="opset1">
			<input>
				<port id="0" precision="FP32">
					<dim>-1</dim>
					<dim>1536</dim>
				</port>
				<port id="1" precision="I64" />
			</input>
			<output>
				<port id="2" precision="FP32" names="715">
					<dim>-1</dim>
					<dim>1</dim>
					<dim>1536</dim>
				</port>
			</output>
		</layer>
		<layer id="300" name="Constant_110734_compressed" type="Const" version="opset1">
			<data element_type="f16" shape="1, 1, 1" offset="35554116" size="2" />
			<output>
				<port id="0" precision="FP16">
					<dim>1</dim>
					<dim>1</dim>
					<dim>1</dim>
				</port>
			</output>
		</layer>
		<layer id="301" name="Constant_110734" type="Convert" version="opset1">
			<data destination_type="f32" />
			<rt_info>
				<attribute name="decompression" version="0" />
			</rt_info>
			<input>
				<port id="0" precision="FP16">
					<dim>1</dim>
					<dim>1</dim>
					<dim>1</dim>
				</port>
			</input>
			<output>
				<port id="1" precision="FP32">
					<dim>1</dim>
					<dim>1</dim>
					<dim>1</dim>
				</port>
			</output>
		</layer>
		<layer id="302" name="__module.action_model.model.transformer_blocks.2.norm1/aten::add/Add" type="Add" version="opset1">
			<data auto_broadcast="numpy" />
			<input>
				<port id="0" precision="FP32">
					<dim>-1</dim>
					<dim>1</dim>
					<dim>1536</dim>
				</port>
				<port id="1" precision="FP32">
					<dim>1</dim>
					<dim>1</dim>
					<dim>1</dim>
				</port>
			</input>
			<output>
				<port id="2" precision="FP32" names="716">
					<dim>-1</dim>
					<dim>1</dim>
					<dim>1536</dim>
				</port>
			</output>
		</layer>
		<layer id="303" name="__module.action_model.model.transformer_blocks.2.norm1/aten::mul/Multiply" type="Multiply" version="opset1">
			<data auto_broadcast="numpy" />
			<input>
				<port id="0" precision="FP32">
					<dim>-1</dim>
					<dim>-1</dim>
					<dim>1536</dim>
				</port>
				<port id="1" precision="FP32">
					<dim>-1</dim>
					<dim>1</dim>
					<dim>1536</dim>
				</port>
			</input>
			<output>
				<port id="2" precision="FP32" names="717">
					<dim>-1</dim>
					<dim>-1</dim>
					<dim>1536</dim>
				</port>
			</output>
		</layer>
		<layer id="304" name="__module.action_model.model.transformer_blocks.2.norm1/aten::unsqueeze/Unsqueeze_1" type="Unsqueeze" version="opset1">
			<input>
				<port id="0" precision="FP32">
					<dim>-1</dim>
					<dim>1536</dim>
				</port>
				<port id="1" precision="I64" />
			</input>
			<output>
				<port id="2" precision="FP32" names="719">
					<dim>-1</dim>
					<dim>1</dim>
					<dim>1536</dim>
				</port>
			</output>
		</layer>
		<layer id="305" name="__module.action_model.model.transformer_blocks.2.norm1/aten::add/Add_1" type="Add" version="opset1">
			<data auto_broadcast="numpy" />
			<input>
				<port id="0" precision="FP32">
					<dim>-1</dim>
					<dim>-1</dim>
					<dim>1536</dim>
				</port>
				<port id="1" precision="FP32">
					<dim>-1</dim>
					<dim>1</dim>
					<dim>1536</dim>
				</port>
			</input>
			<output>
				<port id="2" precision="FP32" names="720,input.65">
					<dim>-1</dim>
					<dim>-1</dim>
					<dim>1536</dim>
				</port>
			</output>
		</layer>
		<layer id="306" name="self.action_model.model.transformer_blocks.2.attn1.to_q.weight_compressed" type="Const" version="opset1">
			<data element_type="f16" shape="1536, 1536" offset="170888078" size="4718592" />
			<output>
				<port id="0" precision="FP16" names="self.action_model.model.transformer_blocks.2.attn1.to_q.weight">
					<dim>1536</dim>
					<dim>1536</dim>
				</port>
			</output>
		</layer>
		<layer id="307" name="self.action_model.model.transformer_blocks.2.attn1.to_q.weight" type="Convert" version="opset1">
			<data destination_type="f32" />
			<rt_info>
				<attribute name="decompression" version="0" />
			</rt_info>
			<input>
				<port id="0" precision="FP16">
					<dim>1536</dim>
					<dim>1536</dim>
				</port>
			</input>
			<output>
				<port id="1" precision="FP32">
					<dim>1536</dim>
					<dim>1536</dim>
				</port>
			</output>
		</layer>
		<layer id="308" name="__module.action_model.model.transformer_blocks.2.attn1.to_q/aten::linear/MatMul" type="MatMul" version="opset1">
			<data transpose_a="false" transpose_b="true" />
			<input>
				<port id="0" precision="FP32">
					<dim>-1</dim>
					<dim>-1</dim>
					<dim>1536</dim>
				</port>
				<port id="1" precision="FP32">
					<dim>1536</dim>
					<dim>1536</dim>
				</port>
			</input>
			<output>
				<port id="2" precision="FP32">
					<dim>-1</dim>
					<dim>-1</dim>
					<dim>1536</dim>
				</port>
			</output>
		</layer>
		<layer id="309" name="Constant_110735_compressed" type="Const" version="opset1">
			<data element_type="f16" shape="1, 1, 1536" offset="175606670" size="3072" />
			<output>
				<port id="0" precision="FP16">
					<dim>1</dim>
					<dim>1</dim>
					<dim>1536</dim>
				</port>
			</output>
		</layer>
		<layer id="310" name="Constant_110735" type="Convert" version="opset1">
			<data destination_type="f32" />
			<rt_info>
				<attribute name="decompression" version="0" />
			</rt_info>
			<input>
				<port id="0" precision="FP16">
					<dim>1</dim>
					<dim>1</dim>
					<dim>1536</dim>
				</port>
			</input>
			<output>
				<port id="1" precision="FP32">
					<dim>1</dim>
					<dim>1</dim>
					<dim>1536</dim>
				</port>
			</output>
		</layer>
		<layer id="311" name="__module.action_model.model.transformer_blocks.2.attn1.to_q/aten::linear/Add" type="Add" version="opset1">
			<data auto_broadcast="numpy" />
			<input>
				<port id="0" precision="FP32">
					<dim>-1</dim>
					<dim>-1</dim>
					<dim>1536</dim>
				</port>
				<port id="1" precision="FP32">
					<dim>1</dim>
					<dim>1</dim>
					<dim>1536</dim>
				</port>
			</input>
			<output>
				<port id="2" precision="FP32" names="729,query.9">
					<dim>-1</dim>
					<dim>-1</dim>
					<dim>1536</dim>
				</port>
			</output>
		</layer>
		<layer id="312" name="Constant_116562" type="Const" version="opset1">
			<data element_type="i64" shape="4" offset="40275782" size="32" />
			<rt_info>
				<attribute name="precise" version="0" />
			</rt_info>
			<output>
				<port id="0" precision="I64">
					<dim>4</dim>
				</port>
			</output>
		</layer>
		<layer id="313" name="__module.action_model.model.transformer_blocks.2.attn1/aten::view/Reshape" type="Reshape" version="opset1">
			<data special_zero="true" />
			<input>
				<port id="0" precision="FP32">
					<dim>-1</dim>
					<dim>-1</dim>
					<dim>1536</dim>
				</port>
				<port id="1" precision="I64">
					<dim>4</dim>
				</port>
			</input>
			<output>
				<port id="2" precision="FP32" names="743">
					<dim>-1</dim>
					<dim>-1</dim>
					<dim>32</dim>
					<dim>48</dim>
				</port>
			</output>
		</layer>
		<layer id="314" name="__module.action_model.model.transformer_blocks.2.attn1/aten::transpose/Constant" type="Const" version="opset1">
			<data element_type="i32" shape="4" offset="40275814" size="16" />
			<output>
				<port id="0" precision="I32">
					<dim>4</dim>
				</port>
			</output>
		</layer>
		<layer id="315" name="__module.action_model.model.transformer_blocks.2.attn1/aten::transpose/Transpose" type="Transpose" version="opset1">
			<input>
				<port id="0" precision="FP32">
					<dim>-1</dim>
					<dim>-1</dim>
					<dim>32</dim>
					<dim>48</dim>
				</port>
				<port id="1" precision="I32">
					<dim>4</dim>
				</port>
			</input>
			<output>
				<port id="2" precision="FP32" names="744,query.11">
					<dim>-1</dim>
					<dim>32</dim>
					<dim>-1</dim>
					<dim>48</dim>
				</port>
			</output>
		</layer>
		<layer id="316" name="self.action_model.model.transformer_blocks.2.attn1.to_k.weight_compressed" type="Const" version="opset1">
			<data element_type="f16" shape="1536, 2048" offset="175609742" size="6291456" />
			<output>
				<port id="0" precision="FP16" names="self.action_model.model.transformer_blocks.2.attn1.to_k.weight">
					<dim>1536</dim>
					<dim>2048</dim>
				</port>
			</output>
		</layer>
		<layer id="317" name="self.action_model.model.transformer_blocks.2.attn1.to_k.weight" type="Convert" version="opset1">
			<data destination_type="f32" />
			<rt_info>
				<attribute name="decompression" version="0" />
			</rt_info>
			<input>
				<port id="0" precision="FP16">
					<dim>1536</dim>
					<dim>2048</dim>
				</port>
			</input>
			<output>
				<port id="1" precision="FP32">
					<dim>1536</dim>
					<dim>2048</dim>
				</port>
			</output>
		</layer>
		<layer id="318" name="__module.action_model.model.transformer_blocks.2.attn1.to_k/aten::linear/MatMul" type="MatMul" version="opset1">
			<data transpose_a="false" transpose_b="true" />
			<input>
				<port id="0" precision="FP32">
					<dim>-1</dim>
					<dim>-1</dim>
					<dim>-1</dim>
				</port>
				<port id="1" precision="FP32">
					<dim>1536</dim>
					<dim>2048</dim>
				</port>
			</input>
			<output>
				<port id="2" precision="FP32">
					<dim>-1</dim>
					<dim>-1</dim>
					<dim>1536</dim>
				</port>
			</output>
		</layer>
		<layer id="319" name="Constant_110736_compressed" type="Const" version="opset1">
			<data element_type="f16" shape="1, 1, 1536" offset="181901198" size="3072" />
			<output>
				<port id="0" precision="FP16">
					<dim>1</dim>
					<dim>1</dim>
					<dim>1536</dim>
				</port>
			</output>
		</layer>
		<layer id="320" name="Constant_110736" type="Convert" version="opset1">
			<data destination_type="f32" />
			<rt_info>
				<attribute name="decompression" version="0" />
			</rt_info>
			<input>
				<port id="0" precision="FP16">
					<dim>1</dim>
					<dim>1</dim>
					<dim>1536</dim>
				</port>
			</input>
			<output>
				<port id="1" precision="FP32">
					<dim>1</dim>
					<dim>1</dim>
					<dim>1536</dim>
				</port>
			</output>
		</layer>
		<layer id="321" name="__module.action_model.model.transformer_blocks.2.attn1.to_k/aten::linear/Add" type="Add" version="opset1">
			<data auto_broadcast="numpy" />
			<input>
				<port id="0" precision="FP32">
					<dim>-1</dim>
					<dim>-1</dim>
					<dim>1536</dim>
				</port>
				<port id="1" precision="FP32">
					<dim>1</dim>
					<dim>1</dim>
					<dim>1536</dim>
				</port>
			</input>
			<output>
				<port id="2" precision="FP32" names="2338,3944,5550,732,key.137,key.201,key.73,key.9">
					<dim>-1</dim>
					<dim>-1</dim>
					<dim>1536</dim>
				</port>
			</output>
		</layer>
		<layer id="322" name="Constant_116563" type="Const" version="opset1">
			<data element_type="i64" shape="4" offset="40275782" size="32" />
			<rt_info>
				<attribute name="precise" version="0" />
			</rt_info>
			<output>
				<port id="0" precision="I64">
					<dim>4</dim>
				</port>
			</output>
		</layer>
		<layer id="323" name="__module.action_model.model.transformer_blocks.2.attn1/aten::view/Reshape_1" type="Reshape" version="opset1">
			<data special_zero="true" />
			<input>
				<port id="0" precision="FP32">
					<dim>-1</dim>
					<dim>-1</dim>
					<dim>1536</dim>
				</port>
				<port id="1" precision="I64">
					<dim>4</dim>
				</port>
			</input>
			<output>
				<port id="2" precision="FP32" names="2352,3958,5564,746">
					<dim>-1</dim>
					<dim>-1</dim>
					<dim>32</dim>
					<dim>48</dim>
				</port>
			</output>
		</layer>
		<layer id="324" name="__module.action_model.model.transformer_blocks.2.attn1/aten::transpose/Constant_1" type="Const" version="opset1">
			<data element_type="i32" shape="4" offset="40275814" size="16" />
			<output>
				<port id="0" precision="I32">
					<dim>4</dim>
				</port>
			</output>
		</layer>
		<layer id="325" name="__module.action_model.model.transformer_blocks.2.attn1/aten::transpose/Transpose_1" type="Transpose" version="opset1">
			<input>
				<port id="0" precision="FP32">
					<dim>-1</dim>
					<dim>-1</dim>
					<dim>32</dim>
					<dim>48</dim>
				</port>
				<port id="1" precision="I32">
					<dim>4</dim>
				</port>
			</input>
			<output>
				<port id="2" precision="FP32" names="2353,3959,5565,747,key.11,key.139,key.203,key.75">
					<dim>-1</dim>
					<dim>32</dim>
					<dim>-1</dim>
					<dim>48</dim>
				</port>
			</output>
		</layer>
		<layer id="326" name="self.action_model.model.transformer_blocks.2.attn1.to_v.weight_compressed" type="Const" version="opset1">
			<data element_type="f16" shape="1536, 2048" offset="181904270" size="6291456" />
			<output>
				<port id="0" precision="FP16" names="self.action_model.model.transformer_blocks.2.attn1.to_v.weight">
					<dim>1536</dim>
					<dim>2048</dim>
				</port>
			</output>
		</layer>
		<layer id="327" name="self.action_model.model.transformer_blocks.2.attn1.to_v.weight" type="Convert" version="opset1">
			<data destination_type="f32" />
			<rt_info>
				<attribute name="decompression" version="0" />
			</rt_info>
			<input>
				<port id="0" precision="FP16">
					<dim>1536</dim>
					<dim>2048</dim>
				</port>
			</input>
			<output>
				<port id="1" precision="FP32">
					<dim>1536</dim>
					<dim>2048</dim>
				</port>
			</output>
		</layer>
		<layer id="328" name="__module.action_model.model.transformer_blocks.2.attn1.to_v/aten::linear/MatMul" type="MatMul" version="opset1">
			<data transpose_a="false" transpose_b="true" />
			<input>
				<port id="0" precision="FP32">
					<dim>-1</dim>
					<dim>-1</dim>
					<dim>-1</dim>
				</port>
				<port id="1" precision="FP32">
					<dim>1536</dim>
					<dim>2048</dim>
				</port>
			</input>
			<output>
				<port id="2" precision="FP32">
					<dim>-1</dim>
					<dim>-1</dim>
					<dim>1536</dim>
				</port>
			</output>
		</layer>
		<layer id="329" name="Constant_110737_compressed" type="Const" version="opset1">
			<data element_type="f16" shape="1, 1, 1536" offset="188195726" size="3072" />
			<output>
				<port id="0" precision="FP16">
					<dim>1</dim>
					<dim>1</dim>
					<dim>1536</dim>
				</port>
			</output>
		</layer>
		<layer id="330" name="Constant_110737" type="Convert" version="opset1">
			<data destination_type="f32" />
			<rt_info>
				<attribute name="decompression" version="0" />
			</rt_info>
			<input>
				<port id="0" precision="FP16">
					<dim>1</dim>
					<dim>1</dim>
					<dim>1536</dim>
				</port>
			</input>
			<output>
				<port id="1" precision="FP32">
					<dim>1</dim>
					<dim>1</dim>
					<dim>1536</dim>
				</port>
			</output>
		</layer>
		<layer id="331" name="__module.action_model.model.transformer_blocks.2.attn1.to_v/aten::linear/Add" type="Add" version="opset1">
			<data auto_broadcast="numpy" />
			<input>
				<port id="0" precision="FP32">
					<dim>-1</dim>
					<dim>-1</dim>
					<dim>1536</dim>
				</port>
				<port id="1" precision="FP32">
					<dim>1</dim>
					<dim>1</dim>
					<dim>1536</dim>
				</port>
			</input>
			<output>
				<port id="2" precision="FP32" names="2341,3947,5553,735,value.137,value.201,value.73,value.9">
					<dim>-1</dim>
					<dim>-1</dim>
					<dim>1536</dim>
				</port>
			</output>
		</layer>
		<layer id="332" name="Constant_116564" type="Const" version="opset1">
			<data element_type="i64" shape="4" offset="40275782" size="32" />
			<rt_info>
				<attribute name="precise" version="0" />
			</rt_info>
			<output>
				<port id="0" precision="I64">
					<dim>4</dim>
				</port>
			</output>
		</layer>
		<layer id="333" name="__module.action_model.model.transformer_blocks.2.attn1/aten::view/Reshape_2" type="Reshape" version="opset1">
			<data special_zero="true" />
			<input>
				<port id="0" precision="FP32">
					<dim>-1</dim>
					<dim>-1</dim>
					<dim>1536</dim>
				</port>
				<port id="1" precision="I64">
					<dim>4</dim>
				</port>
			</input>
			<output>
				<port id="2" precision="FP32" names="2355,3961,5567,749">
					<dim>-1</dim>
					<dim>-1</dim>
					<dim>32</dim>
					<dim>48</dim>
				</port>
			</output>
		</layer>
		<layer id="334" name="__module.action_model.model.transformer_blocks.2.attn1/aten::transpose/Constant_2" type="Const" version="opset1">
			<data element_type="i32" shape="4" offset="40275814" size="16" />
			<output>
				<port id="0" precision="I32">
					<dim>4</dim>
				</port>
			</output>
		</layer>
		<layer id="335" name="__module.action_model.model.transformer_blocks.2.attn1/aten::transpose/Transpose_2" type="Transpose" version="opset1">
			<input>
				<port id="0" precision="FP32">
					<dim>-1</dim>
					<dim>-1</dim>
					<dim>32</dim>
					<dim>48</dim>
				</port>
				<port id="1" precision="I32">
					<dim>4</dim>
				</port>
			</input>
			<output>
				<port id="2" precision="FP32" names="2356,3962,5568,750,value.11,value.139,value.203,value.75">
					<dim>-1</dim>
					<dim>32</dim>
					<dim>-1</dim>
					<dim>48</dim>
				</port>
			</output>
		</layer>
		<layer id="336" name="__module.action_model.model.transformer_blocks.2.attn1/aten::scaled_dot_product_attention/ScaledDotProductAttention" type="ScaledDotProductAttention" version="opset13">
			<data causal="false" />
			<input>
				<port id="0" precision="FP32">
					<dim>-1</dim>
					<dim>32</dim>
					<dim>-1</dim>
					<dim>48</dim>
				</port>
				<port id="1" precision="FP32">
					<dim>-1</dim>
					<dim>32</dim>
					<dim>-1</dim>
					<dim>48</dim>
				</port>
				<port id="2" precision="FP32">
					<dim>-1</dim>
					<dim>32</dim>
					<dim>-1</dim>
					<dim>48</dim>
				</port>
			</input>
			<output>
				<port id="3" precision="FP32" names="751,hidden_states.17">
					<dim>-1</dim>
					<dim>32</dim>
					<dim>-1</dim>
					<dim>48</dim>
				</port>
			</output>
		</layer>
		<layer id="337" name="__module.action_model.model.transformer_blocks.2.attn1/aten::transpose/Constant_3" type="Const" version="opset1">
			<data element_type="i32" shape="4" offset="40275814" size="16" />
			<output>
				<port id="0" precision="I32">
					<dim>4</dim>
				</port>
			</output>
		</layer>
		<layer id="338" name="__module.action_model.model.transformer_blocks.2.attn1/aten::transpose/Transpose_3" type="Transpose" version="opset1">
			<input>
				<port id="0" precision="FP32">
					<dim>-1</dim>
					<dim>32</dim>
					<dim>-1</dim>
					<dim>48</dim>
				</port>
				<port id="1" precision="I32">
					<dim>4</dim>
				</port>
			</input>
			<output>
				<port id="2" precision="FP32" names="752">
					<dim>-1</dim>
					<dim>-1</dim>
					<dim>32</dim>
					<dim>48</dim>
				</port>
			</output>
		</layer>
		<layer id="339" name="Constant_116565" type="Const" version="opset1">
			<data element_type="i64" shape="3" offset="52864886" size="24" />
			<rt_info>
				<attribute name="precise" version="0" />
			</rt_info>
			<output>
				<port id="0" precision="I64">
					<dim>3</dim>
				</port>
			</output>
		</layer>
		<layer id="340" name="__module.action_model.model.transformer_blocks.2.attn1/aten::reshape/Reshape" type="Reshape" version="opset1">
			<data special_zero="true" />
			<input>
				<port id="0" precision="FP32">
					<dim>-1</dim>
					<dim>-1</dim>
					<dim>32</dim>
					<dim>48</dim>
				</port>
				<port id="1" precision="I64">
					<dim>3</dim>
				</port>
			</input>
			<output>
				<port id="2" precision="FP32" names="756,757,hidden_states.19,input.67">
					<dim>-1</dim>
					<dim>-1</dim>
					<dim>1536</dim>
				</port>
			</output>
		</layer>
		<layer id="341" name="self.action_model.model.transformer_blocks.2.attn1.to_out.0.weight_compressed" type="Const" version="opset1">
			<data element_type="f16" shape="1536, 1536" offset="188198798" size="4718592" />
			<output>
				<port id="0" precision="FP16" names="self.action_model.model.transformer_blocks.2.attn1.to_out.0.weight">
					<dim>1536</dim>
					<dim>1536</dim>
				</port>
			</output>
		</layer>
		<layer id="342" name="self.action_model.model.transformer_blocks.2.attn1.to_out.0.weight" type="Convert" version="opset1">
			<data destination_type="f32" />
			<rt_info>
				<attribute name="decompression" version="0" />
			</rt_info>
			<input>
				<port id="0" precision="FP16">
					<dim>1536</dim>
					<dim>1536</dim>
				</port>
			</input>
			<output>
				<port id="1" precision="FP32">
					<dim>1536</dim>
					<dim>1536</dim>
				</port>
			</output>
		</layer>
		<layer id="343" name="__module.action_model.model.transformer_blocks.2.attn1.to_out.0/aten::linear/MatMul" type="MatMul" version="opset1">
			<data transpose_a="false" transpose_b="true" />
			<input>
				<port id="0" precision="FP32">
					<dim>-1</dim>
					<dim>-1</dim>
					<dim>1536</dim>
				</port>
				<port id="1" precision="FP32">
					<dim>1536</dim>
					<dim>1536</dim>
				</port>
			</input>
			<output>
				<port id="2" precision="FP32">
					<dim>-1</dim>
					<dim>-1</dim>
					<dim>1536</dim>
				</port>
			</output>
		</layer>
		<layer id="344" name="Constant_110738_compressed" type="Const" version="opset1">
			<data element_type="f16" shape="1, 1, 1536" offset="192917390" size="3072" />
			<output>
				<port id="0" precision="FP16">
					<dim>1</dim>
					<dim>1</dim>
					<dim>1536</dim>
				</port>
			</output>
		</layer>
		<layer id="345" name="Constant_110738" type="Convert" version="opset1">
			<data destination_type="f32" />
			<rt_info>
				<attribute name="decompression" version="0" />
			</rt_info>
			<input>
				<port id="0" precision="FP16">
					<dim>1</dim>
					<dim>1</dim>
					<dim>1536</dim>
				</port>
			</input>
			<output>
				<port id="1" precision="FP32">
					<dim>1</dim>
					<dim>1</dim>
					<dim>1536</dim>
				</port>
			</output>
		</layer>
		<layer id="346" name="__module.action_model.model.transformer_blocks.2.attn1.to_out.0/aten::linear/Add" type="Add" version="opset1">
			<data auto_broadcast="numpy" />
			<input>
				<port id="0" precision="FP32">
					<dim>-1</dim>
					<dim>-1</dim>
					<dim>1536</dim>
				</port>
				<port id="1" precision="FP32">
					<dim>1</dim>
					<dim>1</dim>
					<dim>1536</dim>
				</port>
			</input>
			<output>
				<port id="2" precision="FP32" names="760,762,input.69,input.71">
					<dim>-1</dim>
					<dim>-1</dim>
					<dim>1536</dim>
				</port>
			</output>
		</layer>
		<layer id="347" name="__module.action_model.model.transformer_blocks.2/aten::add/Add" type="Add" version="opset1">
			<data auto_broadcast="numpy" />
			<input>
				<port id="0" precision="FP32">
					<dim>-1</dim>
					<dim>-1</dim>
					<dim>1536</dim>
				</port>
				<port id="1" precision="FP32">
					<dim>-1</dim>
					<dim>-1</dim>
					<dim>1536</dim>
				</port>
			</input>
			<output>
				<port id="2" precision="FP32" names="764,input.73">
					<dim>-1</dim>
					<dim>-1</dim>
					<dim>1536</dim>
				</port>
			</output>
		</layer>
		<layer id="348" name="__module.action_model.model.transformer_blocks.2.norm3/aten::layer_norm/Multiply" type="Const" version="opset1">
			<data element_type="i32" shape="1" offset="3290148" size="4" />
			<output>
				<port id="0" precision="I32">
					<dim>1</dim>
				</port>
			</output>
		</layer>
		<layer id="349" name="__module.action_model.model.transformer_blocks.2.norm3/aten::layer_norm/MVN" type="MVN" version="opset6">
			<data eps="9.9999997473787516e-06" normalize_variance="true" eps_mode="INSIDE_SQRT" />
			<input>
				<port id="0" precision="FP32">
					<dim>-1</dim>
					<dim>-1</dim>
					<dim>1536</dim>
				</port>
				<port id="1" precision="I32">
					<dim>1</dim>
				</port>
			</input>
			<output>
				<port id="2" precision="FP32" names="766,input.75">
					<dim>-1</dim>
					<dim>-1</dim>
					<dim>1536</dim>
				</port>
			</output>
		</layer>
		<layer id="350" name="self.action_model.model.transformer_blocks.2.ff.net.0.proj.weight_compressed" type="Const" version="opset1">
			<data element_type="f16" shape="6144, 1536" offset="192920462" size="18874368" />
			<output>
				<port id="0" precision="FP16" names="self.action_model.model.transformer_blocks.2.ff.net.0.proj.weight">
					<dim>6144</dim>
…
		<edge from-layer="3615" from-port="2" to-layer="3616" to-port="1" />
		<edge from-layer="3616" from-port="2" to-layer="3618" to-port="0" />
		<edge from-layer="3617" from-port="2" to-layer="3618" to-port="1" />
		<edge from-layer="3618" from-port="2" to-layer="3619" to-port="0" />
		<edge from-layer="3619" from-port="2" to-layer="3622" to-port="0" />
		<edge from-layer="3620" from-port="0" to-layer="3621" to-port="0" />
		<edge from-layer="3621" from-port="1" to-layer="3622" to-port="1" />
		<edge from-layer="3622" from-port="2" to-layer="3624" to-port="0" />
		<edge from-layer="3623" from-port="0" to-layer="3624" to-port="1" />
		<edge from-layer="3624" from-port="2" to-layer="3626" to-port="0" />
		<edge from-layer="3625" from-port="0" to-layer="3626" to-port="1" />
		<edge from-layer="3626" from-port="2" to-layer="3627" to-port="0" />
		<edge from-layer="3627" from-port="3" to-layer="3629" to-port="0" />
		<edge from-layer="3628" from-port="0" to-layer="3629" to-port="1" />
		<edge from-layer="3629" from-port="2" to-layer="3631" to-port="0" />
		<edge from-layer="3630" from-port="0" to-layer="3631" to-port="1" />
		<edge from-layer="3631" from-port="2" to-layer="3632" to-port="0" />
		<edge from-layer="3632" from-port="2" to-layer="3635" to-port="0" />
		<edge from-layer="3633" from-port="0" to-layer="3634" to-port="0" />
		<edge from-layer="3634" from-port="1" to-layer="3635" to-port="1" />
		<edge from-layer="3635" from-port="2" to-layer="3636" to-port="0" />
		<edge from-layer="3636" from-port="2" to-layer="3638" to-port="0" />
		<edge from-layer="3636" from-port="2" to-layer="3648" to-port="1" />
		<edge from-layer="3637" from-port="0" to-layer="3638" to-port="1" />
		<edge from-layer="3638" from-port="2" to-layer="3639" to-port="0" />
		<edge from-layer="3639" from-port="2" to-layer="3642" to-port="0" />
		<edge from-layer="3640" from-port="0" to-layer="3641" to-port="0" />
		<edge from-layer="3641" from-port="1" to-layer="3642" to-port="1" />
		<edge from-layer="3642" from-port="2" to-layer="3643" to-port="0" />
		<edge from-layer="3643" from-port="1" to-layer="3644" to-port="0" />
		<edge from-layer="3644" from-port="2" to-layer="3647" to-port="0" />
		<edge from-layer="3645" from-port="0" to-layer="3646" to-port="0" />
		<edge from-layer="3646" from-port="1" to-layer="3647" to-port="1" />
		<edge from-layer="3647" from-port="2" to-layer="3648" to-port="0" />
		<edge from-layer="3648" from-port="2" to-layer="3650" to-port="0" />
		<edge from-layer="3648" from-port="2" to-layer="3696" to-port="1" />
		<edge from-layer="3649" from-port="0" to-layer="3650" to-port="1" />
		<edge from-layer="3650" from-port="2" to-layer="3660" to-port="0" />
		<edge from-layer="3651" from-port="2" to-layer="3654" to-port="0" />
		<edge from-layer="3652" from-port="0" to-layer="3653" to-port="0" />
		<edge from-layer="3653" from-port="1" to-layer="3654" to-port="1" />
		<edge from-layer="3654" from-port="2" to-layer="3655" to-port="0" />
		<edge from-layer="3655" from-port="3" to-layer="3656" to-port="0" />
		<edge from-layer="3655" from-port="4" to-layer="3661" to-port="0" />
		<edge from-layer="3656" from-port="2" to-layer="3659" to-port="0" />
		<edge from-layer="3657" from-port="0" to-layer="3658" to-port="0" />
		<edge from-layer="3658" from-port="1" to-layer="3659" to-port="1" />
		<edge from-layer="3659" from-port="2" to-layer="3660" to-port="1" />
		<edge from-layer="3660" from-port="2" to-layer="3662" to-port="0" />
		<edge from-layer="3661" from-port="2" to-layer="3662" to-port="1" />
		<edge from-layer="3662" from-port="2" to-layer="3679" to-port="0" />
		<edge from-layer="3662" from-port="2" to-layer="3671" to-port="0" />
		<edge from-layer="3662" from-port="2" to-layer="3663" to-port="0" />
		<edge from-layer="3663" from-port="2" to-layer="3666" to-port="0" />
		<edge from-layer="3664" from-port="0" to-layer="3665" to-port="0" />
		<edge from-layer="3665" from-port="1" to-layer="3666" to-port="1" />
		<edge from-layer="3666" from-port="2" to-layer="3668" to-port="0" />
		<edge from-layer="3667" from-port="0" to-layer="3668" to-port="1" />
		<edge from-layer="3668" from-port="2" to-layer="3670" to-port="0" />
		<edge from-layer="3669" from-port="0" to-layer="3670" to-port="1" />
		<edge from-layer="3670" from-port="2" to-layer="3687" to-port="0" />
		<edge from-layer="3671" from-port="2" to-layer="3674" to-port="0" />
		<edge from-layer="3672" from-port="0" to-layer="3673" to-port="0" />
		<edge from-layer="3673" from-port="1" to-layer="3674" to-port="1" />
		<edge from-layer="3674" from-port="2" to-layer="3676" to-port="0" />
		<edge from-layer="3675" from-port="0" to-layer="3676" to-port="1" />
		<edge from-layer="3676" from-port="2" to-layer="3678" to-port="0" />
		<edge from-layer="3677" from-port="0" to-layer="3678" to-port="1" />
		<edge from-layer="3678" from-port="2" to-layer="3687" to-port="1" />
		<edge from-layer="3679" from-port="2" to-layer="3682" to-port="0" />
		<edge from-layer="3680" from-port="0" to-layer="3681" to-port="0" />
		<edge from-layer="3681" from-port="1" to-layer="3682" to-port="1" />
		<edge from-layer="3682" from-port="2" to-layer="3684" to-port="0" />
		<edge from-layer="3683" from-port="0" to-layer="3684" to-port="1" />
		<edge from-layer="3684" from-port="2" to-layer="3686" to-port="0" />
		<edge from-layer="3685" from-port="0" to-layer="3686" to-port="1" />
		<edge from-layer="3686" from-port="2" to-layer="3687" to-port="2" />
		<edge from-layer="3687" from-port="3" to-layer="3689" to-port="0" />
		<edge from-layer="3688" from-port="0" to-layer="3689" to-port="1" />
		<edge from-layer="3689" from-port="2" to-layer="3691" to-port="0" />
		<edge from-layer="3690" from-port="0" to-layer="3691" to-port="1" />
		<edge from-layer="3691" from-port="2" to-layer="3692" to-port="0" />
		<edge from-layer="3692" from-port="2" to-layer="3695" to-port="0" />
		<edge from-layer="3693" from-port="0" to-layer="3694" to-port="0" />
		<edge from-layer="3694" from-port="1" to-layer="3695" to-port="1" />
		<edge from-layer="3695" from-port="2" to-layer="3696" to-port="0" />
		<edge from-layer="3696" from-port="2" to-layer="3708" to-port="1" />
		<edge from-layer="3696" from-port="2" to-layer="3698" to-port="0" />
		<edge from-layer="3697" from-port="0" to-layer="3698" to-port="1" />
		<edge from-layer="3698" from-port="2" to-layer="3699" to-port="0" />
		<edge from-layer="3699" from-port="2" to-layer="3702" to-port="0" />
		<edge from-layer="3700" from-port="0" to-layer="3701" to-port="0" />
		<edge from-layer="3701" from-port="1" to-layer="3702" to-port="1" />
		<edge from-layer="3702" from-port="2" to-layer="3703" to-port="0" />
		<edge from-layer="3703" from-port="1" to-layer="3704" to-port="0" />
		<edge from-layer="3704" from-port="2" to-layer="3707" to-port="0" />
		<edge from-layer="3705" from-port="0" to-layer="3706" to-port="0" />
		<edge from-layer="3706" from-port="1" to-layer="3707" to-port="1" />
		<edge from-layer="3707" from-port="2" to-layer="3708" to-port="0" />
		<edge from-layer="3708" from-port="2" to-layer="3740" to-port="1" />
		<edge from-layer="3708" from-port="2" to-layer="3710" to-port="0" />
		<edge from-layer="3709" from-port="0" to-layer="3710" to-port="1" />
		<edge from-layer="3710" from-port="2" to-layer="3720" to-port="0" />
		<edge from-layer="3711" from-port="2" to-layer="3714" to-port="0" />
		<edge from-layer="3712" from-port="0" to-layer="3713" to-port="0" />
		<edge from-layer="3713" from-port="1" to-layer="3714" to-port="1" />
		<edge from-layer="3714" from-port="2" to-layer="3715" to-port="0" />
		<edge from-layer="3715" from-port="3" to-layer="3716" to-port="0" />
		<edge from-layer="3715" from-port="4" to-layer="3721" to-port="0" />
		<edge from-layer="3716" from-port="2" to-layer="3719" to-port="0" />
		<edge from-layer="3717" from-port="0" to-layer="3718" to-port="0" />
		<edge from-layer="3718" from-port="1" to-layer="3719" to-port="1" />
		<edge from-layer="3719" from-port="2" to-layer="3720" to-port="1" />
		<edge from-layer="3720" from-port="2" to-layer="3722" to-port="0" />
		<edge from-layer="3721" from-port="2" to-layer="3722" to-port="1" />
		<edge from-layer="3722" from-port="2" to-layer="3723" to-port="0" />
		<edge from-layer="3723" from-port="2" to-layer="3726" to-port="0" />
		<edge from-layer="3724" from-port="0" to-layer="3725" to-port="0" />
		<edge from-layer="3725" from-port="1" to-layer="3726" to-port="1" />
		<edge from-layer="3726" from-port="2" to-layer="3728" to-port="0" />
		<edge from-layer="3727" from-port="0" to-layer="3728" to-port="1" />
		<edge from-layer="3728" from-port="2" to-layer="3730" to-port="0" />
		<edge from-layer="3729" from-port="0" to-layer="3730" to-port="1" />
		<edge from-layer="3730" from-port="2" to-layer="3731" to-port="0" />
		<edge from-layer="3731" from-port="3" to-layer="3733" to-port="0" />
		<edge from-layer="3732" from-port="0" to-layer="3733" to-port="1" />
		<edge from-layer="3733" from-port="2" to-layer="3735" to-port="0" />
		<edge from-layer="3734" from-port="0" to-layer="3735" to-port="1" />
		<edge from-layer="3735" from-port="2" to-layer="3736" to-port="0" />
		<edge from-layer="3736" from-port="2" to-layer="3739" to-port="0" />
		<edge from-layer="3737" from-port="0" to-layer="3738" to-port="0" />
		<edge from-layer="3738" from-port="1" to-layer="3739" to-port="1" />
		<edge from-layer="3739" from-port="2" to-layer="3740" to-port="0" />
		<edge from-layer="3740" from-port="2" to-layer="3742" to-port="0" />
		<edge from-layer="3740" from-port="2" to-layer="3752" to-port="1" />
		<edge from-layer="3741" from-port="0" to-layer="3742" to-port="1" />
		<edge from-layer="3742" from-port="2" to-layer="3743" to-port="0" />
		<edge from-layer="3743" from-port="2" to-layer="3746" to-port="0" />
		<edge from-layer="3744" from-port="0" to-layer="3745" to-port="0" />
		<edge from-layer="3745" from-port="1" to-layer="3746" to-port="1" />
		<edge from-layer="3746" from-port="2" to-layer="3747" to-port="0" />
		<edge from-layer="3747" from-port="1" to-layer="3748" to-port="0" />
		<edge from-layer="3748" from-port="2" to-layer="3751" to-port="0" />
		<edge from-layer="3749" from-port="0" to-layer="3750" to-port="0" />
		<edge from-layer="3750" from-port="1" to-layer="3751" to-port="1" />
		<edge from-layer="3751" from-port="2" to-layer="3752" to-port="0" />
		<edge from-layer="3752" from-port="2" to-layer="3754" to-port="0" />
		<edge from-layer="3752" from-port="2" to-layer="3800" to-port="1" />
		<edge from-layer="3753" from-port="0" to-layer="3754" to-port="1" />
		<edge from-layer="3754" from-port="2" to-layer="3764" to-port="0" />
		<edge from-layer="3755" from-port="2" to-layer="3758" to-port="0" />
		<edge from-layer="3756" from-port="0" to-layer="3757" to-port="0" />
		<edge from-layer="3757" from-port="1" to-layer="3758" to-port="1" />
		<edge from-layer="3758" from-port="2" to-layer="3759" to-port="0" />
		<edge from-layer="3759" from-port="4" to-layer="3765" to-port="0" />
		<edge from-layer="3759" from-port="3" to-layer="3760" to-port="0" />
		<edge from-layer="3760" from-port="2" to-layer="3763" to-port="0" />
		<edge from-layer="3761" from-port="0" to-layer="3762" to-port="0" />
		<edge from-layer="3762" from-port="1" to-layer="3763" to-port="1" />
		<edge from-layer="3763" from-port="2" to-layer="3764" to-port="1" />
		<edge from-layer="3764" from-port="2" to-layer="3766" to-port="0" />
		<edge from-layer="3765" from-port="2" to-layer="3766" to-port="1" />
		<edge from-layer="3766" from-port="2" to-layer="3767" to-port="0" />
		<edge from-layer="3766" from-port="2" to-layer="3783" to-port="0" />
		<edge from-layer="3766" from-port="2" to-layer="3775" to-port="0" />
		<edge from-layer="3767" from-port="2" to-layer="3770" to-port="0" />
		<edge from-layer="3768" from-port="0" to-layer="3769" to-port="0" />
		<edge from-layer="3769" from-port="1" to-layer="3770" to-port="1" />
		<edge from-layer="3770" from-port="2" to-layer="3772" to-port="0" />
		<edge from-layer="3771" from-port="0" to-layer="3772" to-port="1" />
		<edge from-layer="3772" from-port="2" to-layer="3774" to-port="0" />
		<edge from-layer="3773" from-port="0" to-layer="3774" to-port="1" />
		<edge from-layer="3774" from-port="2" to-layer="3791" to-port="0" />
		<edge from-layer="3775" from-port="2" to-layer="3778" to-port="0" />
		<edge from-layer="3776" from-port="0" to-layer="3777" to-port="0" />
		<edge from-layer="3777" from-port="1" to-layer="3778" to-port="1" />
		<edge from-layer="3778" from-port="2" to-layer="3780" to-port="0" />
		<edge from-layer="3779" from-port="0" to-layer="3780" to-port="1" />
		<edge from-layer="3780" from-port="2" to-layer="3782" to-port="0" />
		<edge from-layer="3781" from-port="0" to-layer="3782" to-port="1" />
		<edge from-layer="3782" from-port="2" to-layer="3791" to-port="1" />
		<edge from-layer="3783" from-port="2" to-layer="3786" to-port="0" />
		<edge from-layer="3784" from-port="0" to-layer="3785" to-port="0" />
		<edge from-layer="3785" from-port="1" to-layer="3786" to-port="1" />
		<edge from-layer="3786" from-port="2" to-layer="3788" to-port="0" />
		<edge from-layer="3787" from-port="0" to-layer="3788" to-port="1" />
		<edge from-layer="3788" from-port="2" to-layer="3790" to-port="0" />
		<edge from-layer="3789" from-port="0" to-layer="3790" to-port="1" />
		<edge from-layer="3790" from-port="2" to-layer="3791" to-port="2" />
		<edge from-layer="3791" from-port="3" to-layer="3793" to-port="0" />
		<edge from-layer="3792" from-port="0" to-layer="3793" to-port="1" />
		<edge from-layer="3793" from-port="2" to-layer="3795" to-port="0" />
		<edge from-layer="3794" from-port="0" to-layer="3795" to-port="1" />
		<edge from-layer="3795" from-port="2" to-layer="3796" to-port="0" />
		<edge from-layer="3796" from-port="2" to-layer="3799" to-port="0" />
		<edge from-layer="3797" from-port="0" to-layer="3798" to-port="0" />
		<edge from-layer="3798" from-port="1" to-layer="3799" to-port="1" />
		<edge from-layer="3799" from-port="2" to-layer="3800" to-port="0" />
		<edge from-layer="3800" from-port="2" to-layer="3812" to-port="1" />
		<edge from-layer="3800" from-port="2" to-layer="3802" to-port="0" />
		<edge from-layer="3801" from-port="0" to-layer="3802" to-port="1" />
		<edge from-layer="3802" from-port="2" to-layer="3803" to-port="0" />
		<edge from-layer="3803" from-port="2" to-layer="3806" to-port="0" />
		<edge from-layer="3804" from-port="0" to-layer="3805" to-port="0" />
		<edge from-layer="3805" from-port="1" to-layer="3806" to-port="1" />
		<edge from-layer="3806" from-port="2" to-layer="3807" to-port="0" />
		<edge from-layer="3807" from-port="1" to-layer="3808" to-port="0" />
		<edge from-layer="3808" from-port="2" to-layer="3811" to-port="0" />
		<edge from-layer="3809" from-port="0" to-layer="3810" to-port="0" />
		<edge from-layer="3810" from-port="1" to-layer="3811" to-port="1" />
		<edge from-layer="3811" from-port="2" to-layer="3812" to-port="0" />
		<edge from-layer="3812" from-port="2" to-layer="3844" to-port="1" />
		<edge from-layer="3812" from-port="2" to-layer="3814" to-port="0" />
		<edge from-layer="3813" from-port="0" to-layer="3814" to-port="1" />
		<edge from-layer="3814" from-port="2" to-layer="3824" to-port="0" />
		<edge from-layer="3815" from-port="2" to-layer="3818" to-port="0" />
		<edge from-layer="3816" from-port="0" to-layer="3817" to-port="0" />
		<edge from-layer="3817" from-port="1" to-layer="3818" to-port="1" />
		<edge from-layer="3818" from-port="2" to-layer="3819" to-port="0" />
		<edge from-layer="3819" from-port="3" to-layer="3820" to-port="0" />
		<edge from-layer="3819" from-port="4" to-layer="3825" to-port="0" />
		<edge from-layer="3820" from-port="2" to-layer="3823" to-port="0" />
		<edge from-layer="3821" from-port="0" to-layer="3822" to-port="0" />
		<edge from-layer="3822" from-port="1" to-layer="3823" to-port="1" />
		<edge from-layer="3823" from-port="2" to-layer="3824" to-port="1" />
		<edge from-layer="3824" from-port="2" to-layer="3826" to-port="0" />
		<edge from-layer="3825" from-port="2" to-layer="3826" to-port="1" />
		<edge from-layer="3826" from-port="2" to-layer="3827" to-port="0" />
		<edge from-layer="3827" from-port="2" to-layer="3830" to-port="0" />
		<edge from-layer="3828" from-port="0" to-layer="3829" to-port="0" />
		<edge from-layer="3829" from-port="1" to-layer="3830" to-port="1" />
		<edge from-layer="3830" from-port="2" to-layer="3832" to-port="0" />
		<edge from-layer="3831" from-port="0" to-layer="3832" to-port="1" />
		<edge from-layer="3832" from-port="2" to-layer="3834" to-port="0" />
		<edge from-layer="3833" from-port="0" to-layer="3834" to-port="1" />
		<edge from-layer="3834" from-port="2" to-layer="3835" to-port="0" />
		<edge from-layer="3835" from-port="3" to-layer="3837" to-port="0" />
		<edge from-layer="3836" from-port="0" to-layer="3837" to-port="1" />
		<edge from-layer="3837" from-port="2" to-layer="3839" to-port="0" />
		<edge from-layer="3838" from-port="0" to-layer="3839" to-port="1" />
		<edge from-layer="3839" from-port="2" to-layer="3840" to-port="0" />
		<edge from-layer="3840" from-port="2" to-layer="3843" to-port="0" />
		<edge from-layer="3841" from-port="0" to-layer="3842" to-port="0" />
		<edge from-layer="3842" from-port="1" to-layer="3843" to-port="1" />
		<edge from-layer="3843" from-port="2" to-layer="3844" to-port="0" />
		<edge from-layer="3844" from-port="2" to-layer="3846" to-port="0" />
		<edge from-layer="3844" from-port="2" to-layer="3856" to-port="1" />
		<edge from-layer="3845" from-port="0" to-layer="3846" to-port="1" />
		<edge from-layer="3846" from-port="2" to-layer="3847" to-port="0" />
		<edge from-layer="3847" from-port="2" to-layer="3850" to-port="0" />
		<edge from-layer="3848" from-port="0" to-layer="3849" to-port="0" />
		<edge from-layer="3849" from-port="1" to-layer="3850" to-port="1" />
		<edge from-layer="3850" from-port="2" to-layer="3851" to-port="0" />
		<edge from-layer="3851" from-port="1" to-layer="3852" to-port="0" />
		<edge from-layer="3852" from-port="2" to-layer="3855" to-port="0" />
		<edge from-layer="3853" from-port="0" to-layer="3854" to-port="0" />
		<edge from-layer="3854" from-port="1" to-layer="3855" to-port="1" />
		<edge from-layer="3855" from-port="2" to-layer="3856" to-port="0" />
		<edge from-layer="3856" from-port="2" to-layer="3904" to-port="1" />
		<edge from-layer="3856" from-port="2" to-layer="3858" to-port="0" />
		<edge from-layer="3857" from-port="0" to-layer="3858" to-port="1" />
		<edge from-layer="3858" from-port="2" to-layer="3868" to-port="0" />
		<edge from-layer="3859" from-port="2" to-layer="3862" to-port="0" />
		<edge from-layer="3860" from-port="0" to-layer="3861" to-port="0" />
		<edge from-layer="3861" from-port="1" to-layer="3862" to-port="1" />
		<edge from-layer="3862" from-port="2" to-layer="3863" to-port="0" />
		<edge from-layer="3863" from-port="3" to-layer="3864" to-port="0" />
		<edge from-layer="3863" from-port="4" to-layer="3869" to-port="0" />
		<edge from-layer="3864" from-port="2" to-layer="3867" to-port="0" />
		<edge from-layer="3865" from-port="0" to-layer="3866" to-port="0" />
		<edge from-layer="3866" from-port="1" to-layer="3867" to-port="1" />
		<edge from-layer="3867" from-port="2" to-layer="3868" to-port="1" />
		<edge from-layer="3868" from-port="2" to-layer="3870" to-port="0" />
		<edge from-layer="3869" from-port="2" to-layer="3870" to-port="1" />
		<edge from-layer="3870" from-port="2" to-layer="3871" to-port="0" />
		<edge from-layer="3870" from-port="2" to-layer="3887" to-port="0" />
		<edge from-layer="3870" from-port="2" to-layer="3879" to-port="0" />
		<edge from-layer="3871" from-port="2" to-layer="3874" to-port="0" />
		<edge from-layer="3872" from-port="0" to-layer="3873" to-port="0" />
		<edge from-layer="3873" from-port="1" to-layer="3874" to-port="1" />
		<edge from-layer="3874" from-port="2" to-layer="3876" to-port="0" />
		<edge from-layer="3875" from-port="0" to-layer="3876" to-port="1" />
		<edge from-layer="3876" from-port="2" to-layer="3878" to-port="0" />
		<edge from-layer="3877" from-port="0" to-layer="3878" to-port="1" />
		<edge from-layer="3878" from-port="2" to-layer="3895" to-port="0" />
		<edge from-layer="3879" from-port="2" to-layer="3882" to-port="0" />
		<edge from-layer="3880" from-port="0" to-layer="3881" to-port="0" />
		<edge from-layer="3881" from-port="1" to-layer="3882" to-port="1" />
		<edge from-layer="3882" from-port="2" to-layer="3884" to-port="0" />
		<edge from-layer="3883" from-port="0" to-layer="3884" to-port="1" />
		<edge from-layer="3884" from-port="2" to-layer="3886" to-port="0" />
		<edge from-layer="3885" from-port="0" to-layer="3886" to-port="1" />
		<edge from-layer="3886" from-port="2" to-layer="3895" to-port="1" />
		<edge from-layer="3887" from-port="2" to-layer="3890" to-port="0" />
		<edge from-layer="3888" from-port="0" to-layer="3889" to-port="0" />
		<edge from-layer="3889" from-port="1" to-layer="3890" to-port="1" />
		<edge from-layer="3890" from-port="2" to-layer="3892" to-port="0" />
		<edge from-layer="3891" from-port="0" to-layer="3892" to-port="1" />
		<edge from-layer="3892" from-port="2" to-layer="3894" to-port="0" />
		<edge from-layer="3893" from-port="0" to-layer="3894" to-port="1" />
		<edge from-layer="3894" from-port="2" to-layer="3895" to-port="2" />
		<edge from-layer="3895" from-port="3" to-layer="3897" to-port="0" />
		<edge from-layer="3896" from-port="0" to-layer="3897" to-port="1" />
		<edge from-layer="3897" from-port="2" to-layer="3899" to-port="0" />
		<edge from-layer="3898" from-port="0" to-layer="3899" to-port="1" />
		<edge from-layer="3899" from-port="2" to-layer="3900" to-port="0" />
		<edge from-layer="3900" from-port="2" to-layer="3903" to-port="0" />
		<edge from-layer="3901" from-port="0" to-layer="3902" to-port="0" />
		<edge from-layer="3902" from-port="1" to-layer="3903" to-port="1" />
		<edge from-layer="3903" from-port="2" to-layer="3904" to-port="0" />
		<edge from-layer="3904" from-port="2" to-layer="3906" to-port="0" />
		<edge from-layer="3904" from-port="2" to-layer="3916" to-port="1" />
		<edge from-layer="3905" from-port="0" to-layer="3906" to-port="1" />
		<edge from-layer="3906" from-port="2" to-layer="3907" to-port="0" />
		<edge from-layer="3907" from-port="2" to-layer="3910" to-port="0" />
		<edge from-layer="3908" from-port="0" to-layer="3909" to-port="0" />
		<edge from-layer="3909" from-port="1" to-layer="3910" to-port="1" />
		<edge from-layer="3910" from-port="2" to-layer="3911" to-port="0" />
		<edge from-layer="3911" from-port="1" to-layer="3912" to-port="0" />
		<edge from-layer="3912" from-port="2" to-layer="3915" to-port="0" />
		<edge from-layer="3913" from-port="0" to-layer="3914" to-port="0" />
		<edge from-layer="3914" from-port="1" to-layer="3915" to-port="1" />
		<edge from-layer="3915" from-port="2" to-layer="3916" to-port="0" />
		<edge from-layer="3916" from-port="2" to-layer="3918" to-port="0" />
		<edge from-layer="3916" from-port="2" to-layer="3948" to-port="1" />
		<edge from-layer="3917" from-port="0" to-layer="3918" to-port="1" />
		<edge from-layer="3918" from-port="2" to-layer="3928" to-port="0" />
		<edge from-layer="3919" from-port="2" to-layer="3922" to-port="0" />
		<edge from-layer="3920" from-port="0" to-layer="3921" to-port="0" />
		<edge from-layer="3921" from-port="1" to-layer="3922" to-port="1" />
		<edge from-layer="3922" from-port="2" to-layer="3923" to-port="0" />
		<edge from-layer="3923" from-port="4" to-layer="3929" to-port="0" />
		<edge from-layer="3923" from-port="3" to-layer="3924" to-port="0" />
		<edge from-layer="3924" from-port="2" to-layer="3927" to-port="0" />
		<edge from-layer="3925" from-port="0" to-layer="3926" to-port="0" />
		<edge from-layer="3926" from-port="1" to-layer="3927" to-port="1" />
		<edge from-layer="3927" from-port="2" to-layer="3928" to-port="1" />
		<edge from-layer="3928" from-port="2" to-layer="3930" to-port="0" />
		<edge from-layer="3929" from-port="2" to-layer="3930" to-port="1" />
		<edge from-layer="3930" from-port="2" to-layer="3931" to-port="0" />
		<edge from-layer="3931" from-port="2" to-layer="3934" to-port="0" />
		<edge from-layer="3932" from-port="0" to-layer="3933" to-port="0" />
		<edge from-layer="3933" from-port="1" to-layer="3934" to-port="1" />
		<edge from-layer="3934" from-port="2" to-layer="3936" to-port="0" />
		<edge from-layer="3935" from-port="0" to-layer="3936" to-port="1" />
		<edge from-layer="3936" from-port="2" to-layer="3938" to-port="0" />
		<edge from-layer="3937" from-port="0" to-layer="3938" to-port="1" />
		<edge from-layer="3938" from-port="2" to-layer="3939" to-port="0" />
		<edge from-layer="3939" from-port="3" to-layer="3941" to-port="0" />
		<edge from-layer="3940" from-port="0" to-layer="3941" to-port="1" />
		<edge from-layer="3941" from-port="2" to-layer="3943" to-port="0" />
		<edge from-layer="3942" from-port="0" to-layer="3943" to-port="1" />
		<edge from-layer="3943" from-port="2" to-layer="3944" to-port="0" />
		<edge from-layer="3944" from-port="2" to-layer="3947" to-port="0" />
		<edge from-layer="3945" from-port="0" to-layer="3946" to-port="0" />
		<edge from-layer="3946" from-port="1" to-layer="3947" to-port="1" />
		<edge from-layer="3947" from-port="2" to-layer="3948" to-port="0" />
		<edge from-layer="3948" from-port="2" to-layer="3950" to-port="0" />
		<edge from-layer="3948" from-port="2" to-layer="3960" to-port="1" />
		<edge from-layer="3949" from-port="0" to-layer="3950" to-port="1" />
		<edge from-layer="3950" from-port="2" to-layer="3951" to-port="0" />
		<edge from-layer="3951" from-port="2" to-layer="3954" to-port="0" />
		<edge from-layer="3952" from-port="0" to-layer="3953" to-port="0" />
		<edge from-layer="3953" from-port="1" to-layer="3954" to-port="1" />
		<edge from-layer="3954" from-port="2" to-layer="3955" to-port="0" />
		<edge from-layer="3955" from-port="1" to-layer="3956" to-port="0" />
		<edge from-layer="3956" from-port="2" to-layer="3959" to-port="0" />
		<edge from-layer="3957" from-port="0" to-layer="3958" to-port="0" />
		<edge from-layer="3958" from-port="1" to-layer="3959" to-port="1" />
		<edge from-layer="3959" from-port="2" to-layer="3960" to-port="0" />
		<edge from-layer="3960" from-port="2" to-layer="4008" to-port="1" />
		<edge from-layer="3960" from-port="2" to-layer="3962" to-port="0" />
		<edge from-layer="3961" from-port="0" to-layer="3962" to-port="1" />
		<edge from-layer="3962" from-port="2" to-layer="3972" to-port="0" />
		<edge from-layer="3963" from-port="2" to-layer="3966" to-port="0" />
		<edge from-layer="3964" from-port="0" to-layer="3965" to-port="0" />
		<edge from-layer="3965" from-port="1" to-layer="3966" to-port="1" />
		<edge from-layer="3966" from-port="2" to-layer="3967" to-port="0" />
		<edge from-layer="3967" from-port="4" to-layer="3973" to-port="0" />
		<edge from-layer="3967" from-port="3" to-layer="3968" to-port="0" />
		<edge from-layer="3968" from-port="2" to-layer="3971" to-port="0" />
		<edge from-layer="3969" from-port="0" to-layer="3970" to-port="0" />
		<edge from-layer="3970" from-port="1" to-layer="3971" to-port="1" />
		<edge from-layer="3971" from-port="2" to-layer="3972" to-port="1" />
		<edge from-layer="3972" from-port="2" to-layer="3974" to-port="0" />
		<edge from-layer="3973" from-port="2" to-layer="3974" to-port="1" />
		<edge from-layer="3974" from-port="2" to-layer="3983" to-port="0" />
		<edge from-layer="3974" from-port="2" to-layer="3975" to-port="0" />
		<edge from-layer="3974" from-port="2" to-layer="3991" to-port="0" />
		<edge from-layer="3975" from-port="2" to-layer="3978" to-port="0" />
		<edge from-layer="3976" from-port="0" to-layer="3977" to-port="0" />
		<edge from-layer="3977" from-port="1" to-layer="3978" to-port="1" />
		<edge from-layer="3978" from-port="2" to-layer="3980" to-port="0" />
		<edge from-layer="3979" from-port="0" to-layer="3980" to-port="1" />
		<edge from-layer="3980" from-port="2" to-layer="3982" to-port="0" />
		<edge from-layer="3981" from-port="0" to-layer="3982" to-port="1" />
		<edge from-layer="3982" from-port="2" to-layer="3999" to-port="0" />
		<edge from-layer="3983" from-port="2" to-layer="3986" to-port="0" />
		<edge from-layer="3984" from-port="0" to-layer="3985" to-port="0" />
		<edge from-layer="3985" from-port="1" to-layer="3986" to-port="1" />
		<edge from-layer="3986" from-port="2" to-layer="3988" to-port="0" />
		<edge from-layer="3987" from-port="0" to-layer="3988" to-port="1" />
		<edge from-layer="3988" from-port="2" to-layer="3990" to-port="0" />
		<edge from-layer="3989" from-port="0" to-layer="3990" to-port="1" />
		<edge from-layer="3990" from-port="2" to-layer="3999" to-port="1" />
		<edge from-layer="3991" from-port="2" to-layer="3994" to-port="0" />
		<edge from-layer="3992" from-port="0" to-layer="3993" to-port="0" />
		<edge from-layer="3993" from-port="1" to-layer="3994" to-port="1" />
		<edge from-layer="3994" from-port="2" to-layer="3996" to-port="0" />
		<edge from-layer="3995" from-port="0" to-layer="3996" to-port="1" />
		<edge from-layer="3996" from-port="2" to-layer="3998" to-port="0" />
		<edge from-layer="3997" from-port="0" to-layer="3998" to-port="1" />
		<edge from-layer="3998" from-port="2" to-layer="3999" to-port="2" />
		<edge from-layer="3999" from-port="3" to-layer="4001" to-port="0" />
		<edge from-layer="4000" from-port="0" to-layer="4001" to-port="1" />
		<edge from-layer="4001" from-port="2" to-layer="4003" to-port="0" />
		<edge from-layer="4002" from-port="0" to-layer="4003" to-port="1" />
		<edge from-layer="4003" from-port="2" to-layer="4004" to-port="0" />
		<edge from-layer="4004" from-port="2" to-layer="4007" to-port="0" />
		<edge from-layer="4005" from-port="0" to-layer="4006" to-port="0" />
		<edge from-layer="4006" from-port="1" to-layer="4007" to-port="1" />
		<edge from-layer="4007" from-port="2" to-layer="4008" to-port="0" />
		<edge from-layer="4008" from-port="2" to-layer="4010" to-port="0" />
		<edge from-layer="4008" from-port="2" to-layer="4020" to-port="1" />
		<edge from-layer="4009" from-port="0" to-layer="4010" to-port="1" />
		<edge from-layer="4010" from-port="2" to-layer="4011" to-port="0" />
		<edge from-layer="4011" from-port="2" to-layer="4014" to-port="0" />
		<edge from-layer="4012" from-port="0" to-layer="4013" to-port="0" />
		<edge from-layer="4013" from-port="1" to-layer="4014" to-port="1" />
		<edge from-layer="4014" from-port="2" to-layer="4015" to-port="0" />
		<edge from-layer="4015" from-port="1" to-layer="4016" to-port="0" />
		<edge from-layer="4016" from-port="2" to-layer="4019" to-port="0" />
		<edge from-layer="4017" from-port="0" to-layer="4018" to-port="0" />
		<edge from-layer="4018" from-port="1" to-layer="4019" to-port="1" />
		<edge from-layer="4019" from-port="2" to-layer="4020" to-port="0" />
		<edge from-layer="4020" from-port="2" to-layer="4022" to-port="0" />
		<edge from-layer="4020" from-port="2" to-layer="4052" to-port="1" />
		<edge from-layer="4021" from-port="0" to-layer="4022" to-port="1" />
		<edge from-layer="4022" from-port="2" to-layer="4032" to-port="0" />
		<edge from-layer="4023" from-port="2" to-layer="4026" to-port="0" />
		<edge from-layer="4024" from-port="0" to-layer="4025" to-port="0" />
		<edge from-layer="4025" from-port="1" to-layer="4026" to-port="1" />
		<edge from-layer="4026" from-port="2" to-layer="4027" to-port="0" />
		<edge from-layer="4027" from-port="3" to-layer="4028" to-port="0" />
		<edge from-layer="4027" from-port="4" to-layer="4033" to-port="0" />
		<edge from-layer="4028" from-port="2" to-layer="4031" to-port="0" />
		<edge from-layer="4029" from-port="0" to-layer="4030" to-port="0" />
		<edge from-layer="4030" from-port="1" to-layer="4031" to-port="1" />
		<edge from-layer="4031" from-port="2" to-layer="4032" to-port="1" />
		<edge from-layer="4032" from-port="2" to-layer="4034" to-port="0" />
		<edge from-layer="4033" from-port="2" to-layer="4034" to-port="1" />
		<edge from-layer="4034" from-port="2" to-layer="4035" to-port="0" />
		<edge from-layer="4035" from-port="2" to-layer="4038" to-port="0" />
		<edge from-layer="4036" from-port="0" to-layer="4037" to-port="0" />
		<edge from-layer="4037" from-port="1" to-layer="4038" to-port="1" />
		<edge from-layer="4038" from-port="2" to-layer="4040" to-port="0" />
		<edge from-layer="4039" from-port="0" to-layer="4040" to-port="1" />
		<edge from-layer="4040" from-port="2" to-layer="4042" to-port="0" />
		<edge from-layer="4041" from-port="0" to-layer="4042" to-port="1" />
		<edge from-layer="4042" from-port="2" to-layer="4043" to-port="0" />
		<edge from-layer="4043" from-port="3" to-layer="4045" to-port="0" />
		<edge from-layer="4044" from-port="0" to-layer="4045" to-port="1" />
		<edge from-layer="4045" from-port="2" to-layer="4047" to-port="0" />
		<edge from-layer="4046" from-port="0" to-layer="4047" to-port="1" />
		<edge from-layer="4047" from-port="2" to-layer="4048" to-port="0" />
		<edge from-layer="4048" from-port="2" to-layer="4051" to-port="0" />
		<edge from-layer="4049" from-port="0" to-layer="4050" to-port="0" />
		<edge from-layer="4050" from-port="1" to-layer="4051" to-port="1" />
		<edge from-layer="4051" from-port="2" to-layer="4052" to-port="0" />
		<edge from-layer="4052" from-port="2" to-layer="4054" to-port="0" />
		<edge from-layer="4052" from-port="2" to-layer="4064" to-port="1" />
		<edge from-layer="4053" from-port="0" to-layer="4054" to-port="1" />
		<edge from-layer="4054" from-port="2" to-layer="4055" to-port="0" />
		<edge from-layer="4055" from-port="2" to-layer="4058" to-port="0" />
		<edge from-layer="4056" from-port="0" to-layer="4057" to-port="0" />
		<edge from-layer="4057" from-port="1" to-layer="4058" to-port="1" />
		<edge from-layer="4058" from-port="2" to-layer="4059" to-port="0" />
		<edge from-layer="4059" from-port="1" to-layer="4060" to-port="0" />
		<edge from-layer="4060" from-port="2" to-layer="4063" to-port="0" />
		<edge from-layer="4061" from-port="0" to-layer="4062" to-port="0" />
		<edge from-layer="4062" from-port="1" to-layer="4063" to-port="1" />
		<edge from-layer="4063" from-port="2" to-layer="4064" to-port="0" />
		<edge from-layer="4064" from-port="2" to-layer="4066" to-port="0" />
		<edge from-layer="4064" from-port="2" to-layer="4112" to-port="1" />
		<edge from-layer="4065" from-port="0" to-layer="4066" to-port="1" />
		<edge from-layer="4066" from-port="2" to-layer="4076" to-port="0" />
		<edge from-layer="4067" from-port="2" to-layer="4070" to-port="0" />
		<edge from-layer="4068" from-port="0" to-layer="4069" to-port="0" />
		<edge from-layer="4069" from-port="1" to-layer="4070" to-port="1" />
		<edge from-layer="4070" from-port="2" to-layer="4071" to-port="0" />
		<edge from-layer="4071" from-port="4" to-layer="4077" to-port="0" />
		<edge from-layer="4071" from-port="3" to-layer="4072" to-port="0" />
		<edge from-layer="4072" from-port="2" to-layer="4075" to-port="0" />
		<edge from-layer="4073" from-port="0" to-layer="4074" to-port="0" />
		<edge from-layer="4074" from-port="1" to-layer="4075" to-port="1" />
		<edge from-layer="4075" from-port="2" to-layer="4076" to-port="1" />
		<edge from-layer="4076" from-port="2" to-layer="4078" to-port="0" />
		<edge from-layer="4077" from-port="2" to-layer="4078" to-port="1" />
		<edge from-layer="4078" from-port="2" to-layer="4079" to-port="0" />
		<edge from-layer="4078" from-port="2" to-layer="4095" to-port="0" />
		<edge from-layer="4078" from-port="2" to-layer="4087" to-port="0" />
		<edge from-layer="4079" from-port="2" to-layer="4082" to-port="0" />
		<edge from-layer="4080" from-port="0" to-layer="4081" to-port="0" />
		<edge from-layer="4081" from-port="1" to-layer="4082" to-port="1" />
		<edge from-layer="4082" from-port="2" to-layer="4084" to-port="0" />
		<edge from-layer="4083" from-port="0" to-layer="4084" to-port="1" />
		<edge from-layer="4084" from-port="2" to-layer="4086" to-port="0" />
		<edge from-layer="4085" from-port="0" to-layer="4086" to-port="1" />
		<edge from-layer="4086" from-port="2" to-layer="4103" to-port="0" />
		<edge from-layer="4087" from-port="2" to-layer="4090" to-port="0" />
		<edge from-layer="4088" from-port="0" to-layer="4089" to-port="0" />
		<edge from-layer="4089" from-port="1" to-layer="4090" to-port="1" />
		<edge from-layer="4090" from-port="2" to-layer="4092" to-port="0" />
		<edge from-layer="4091" from-port="0" to-layer="4092" to-port="1" />
		<edge from-layer="4092" from-port="2" to-layer="4094" to-port="0" />
		<edge from-layer="4093" from-port="0" to-layer="4094" to-port="1" />
		<edge from-layer="4094" from-port="2" to-layer="4103" to-port="1" />
		<edge from-layer="4095" from-port="2" to-layer="4098" to-port="0" />
		<edge from-layer="4096" from-port="0" to-layer="4097" to-port="0" />
		<edge from-layer="4097" from-port="1" to-layer="4098" to-port="1" />
		<edge from-layer="4098" from-port="2" to-layer="4100" to-port="0" />
		<edge from-layer="4099" from-port="0" to-layer="4100" to-port="1" />
		<edge from-layer="4100" from-port="2" to-layer="4102" to-port="0" />
		<edge from-layer="4101" from-port="0" to-layer="4102" to-port="1" />
		<edge from-layer="4102" from-port="2" to-layer="4103" to-port="2" />
		<edge from-layer="4103" from-port="3" to-layer="4105" to-port="0" />
		<edge from-layer="4104" from-port="0" to-layer="4105" to-port="1" />
		<edge from-layer="4105" from-port="2" to-layer="4107" to-port="0" />
		<edge from-layer="4106" from-port="0" to-layer="4107" to-port="1" />
		<edge from-layer="4107" from-port="2" to-layer="4108" to-port="0" />
		<edge from-layer="4108" from-port="2" to-layer="4111" to-port="0" />
		<edge from-layer="4109" from-port="0" to-layer="4110" to-port="0" />
		<edge from-layer="4110" from-port="1" to-layer="4111" to-port="1" />
		<edge from-layer="4111" from-port="2" to-layer="4112" to-port="0" />
		<edge from-layer="4112" from-port="2" to-layer="4124" to-port="1" />
		<edge from-layer="4112" from-port="2" to-layer="4114" to-port="0" />
		<edge from-layer="4113" from-port="0" to-layer="4114" to-port="1" />
		<edge from-layer="4114" from-port="2" to-layer="4115" to-port="0" />
		<edge from-layer="4115" from-port="2" to-layer="4118" to-port="0" />
		<edge from-layer="4116" from-port="0" to-layer="4117" to-port="0" />
		<edge from-layer="4117" from-port="1" to-layer="4118" to-port="1" />
		<edge from-layer="4118" from-port="2" to-layer="4119" to-port="0" />
		<edge from-layer="4119" from-port="1" to-layer="4120" to-port="0" />
		<edge from-layer="4120" from-port="2" to-layer="4123" to-port="0" />
		<edge from-layer="4121" from-port="0" to-layer="4122" to-port="0" />
		<edge from-layer="4122" from-port="1" to-layer="4123" to-port="1" />
		<edge from-layer="4123" from-port="2" to-layer="4124" to-port="0" />
		<edge from-layer="4124" from-port="2" to-layer="4126" to-port="0" />
		<edge from-layer="4124" from-port="2" to-layer="4156" to-port="1" />
		<edge from-layer="4125" from-port="0" to-layer="4126" to-port="1" />
		<edge from-layer="4126" from-port="2" to-layer="4136" to-port="0" />
		<edge from-layer="4127" from-port="2" to-layer="4130" to-port="0" />
		<edge from-layer="4128" from-port="0" to-layer="4129" to-port="0" />
		<edge from-layer="4129" from-port="1" to-layer="4130" to-port="1" />
		<edge from-layer="4130" from-port="2" to-layer="4131" to-port="0" />
		<edge from-layer="4131" from-port="4" to-layer="4137" to-port="0" />
		<edge from-layer="4131" from-port="3" to-layer="4132" to-port="0" />
		<edge from-layer="4132" from-port="2" to-layer="4135" to-port="0" />
		<edge from-layer="4133" from-port="0" to-layer="4134" to-port="0" />
		<edge from-layer="4134" from-port="1" to-layer="4135" to-port="1" />
		<edge from-layer="4135" from-port="2" to-layer="4136" to-port="1" />
		<edge from-layer="4136" from-port="2" to-layer="4138" to-port="0" />
		<edge from-layer="4137" from-port="2" to-layer="4138" to-port="1" />
		<edge from-layer="4138" from-port="2" to-layer="4139" to-port="0" />
		<edge from-layer="4139" from-port="2" to-layer="4142" to-port="0" />
		<edge from-layer="4140" from-port="0" to-layer="4141" to-port="0" />
		<edge from-layer="4141" from-port="1" to-layer="4142" to-port="1" />
		<edge from-layer="4142" from-port="2" to-layer="4144" to-port="0" />
		<edge from-layer="4143" from-port="0" to-layer="4144" to-port="1" />
		<edge from-layer="4144" from-port="2" to-layer="4146" to-port="0" />
		<edge from-layer="4145" from-port="0" to-layer="4146" to-port="1" />
		<edge from-layer="4146" from-port="2" to-layer="4147" to-port="0" />
		<edge from-layer="4147" from-port="3" to-layer="4149" to-port="0" />
		<edge from-layer="4148" from-port="0" to-layer="4149" to-port="1" />
		<edge from-layer="4149" from-port="2" to-layer="4151" to-port="0" />
		<edge from-layer="4150" from-port="0" to-layer="4151" to-port="1" />
		<edge from-layer="4151" from-port="2" to-layer="4152" to-port="0" />
		<edge from-layer="4152" from-port="2" to-layer="4155" to-port="0" />
		<edge from-layer="4153" from-port="0" to-layer="4154" to-port="0" />
		<edge from-layer="4154" from-port="1" to-layer="4155" to-port="1" />
		<edge from-layer="4155" from-port="2" to-layer="4156" to-port="0" />
		<edge from-layer="4156" from-port="2" to-layer="4168" to-port="1" />
		<edge from-layer="4156" from-port="2" to-layer="4158" to-port="0" />
		<edge from-layer="4157" from-port="0" to-layer="4158" to-port="1" />
		<edge from-layer="4158" from-port="2" to-layer="4159" to-port="0" />
		<edge from-layer="4159" from-port="2" to-layer="4162" to-port="0" />
		<edge from-layer="4160" from-port="0" to-layer="4161" to-port="0" />
		<edge from-layer="4161" from-port="1" to-layer="4162" to-port="1" />
		<edge from-layer="4162" from-port="2" to-layer="4163" to-port="0" />
		<edge from-layer="4163" from-port="1" to-layer="4164" to-port="0" />
		<edge from-layer="4164" from-port="2" to-layer="4167" to-port="0" />
		<edge from-layer="4165" from-port="0" to-layer="4166" to-port="0" />
		<edge from-layer="4166" from-port="1" to-layer="4167" to-port="1" />
		<edge from-layer="4167" from-port="2" to-layer="4168" to-port="0" />
		<edge from-layer="4168" from-port="2" to-layer="4170" to-port="0" />
		<edge from-layer="4168" from-port="2" to-layer="4216" to-port="1" />
		<edge from-layer="4169" from-port="0" to-layer="4170" to-port="1" />
		<edge from-layer="4170" from-port="2" to-layer="4180" to-port="0" />
		<edge from-layer="4171" from-port="2" to-layer="4174" to-port="0" />
		<edge from-layer="4172" from-port="0" to-layer="4173" to-port="0" />
		<edge from-layer="4173" from-port="1" to-layer="4174" to-port="1" />
		<edge from-layer="4174" from-port="2" to-layer="4175" to-port="0" />
		<edge from-layer="4175" from-port="3" to-layer="4176" to-port="0" />
		<edge from-layer="4175" from-port="4" to-layer="4181" to-port="0" />
		<edge from-layer="4176" from-port="2" to-layer="4179" to-port="0" />
		<edge from-layer="4177" from-port="0" to-layer="4178" to-port="0" />
		<edge from-layer="4178" from-port="1" to-layer="4179" to-port="1" />
		<edge from-layer="4179" from-port="2" to-layer="4180" to-port="1" />
		<edge from-layer="4180" from-port="2" to-layer="4182" to-port="0" />
		<edge from-layer="4181" from-port="2" to-layer="4182" to-port="1" />
		<edge from-layer="4182" from-port="2" to-layer="4199" to-port="0" />
		<edge from-layer="4182" from-port="2" to-layer="4191" to-port="0" />
		<edge from-layer="4182" from-port="2" to-layer="4183" to-port="0" />
		<edge from-layer="4183" from-port="2" to-layer="4186" to-port="0" />
		<edge from-layer="4184" from-port="0" to-layer="4185" to-port="0" />
		<edge from-layer="4185" from-port="1" to-layer="4186" to-port="1" />
		<edge from-layer="4186" from-port="2" to-layer="4188" to-port="0" />
		<edge from-layer="4187" from-port="0" to-layer="4188" to-port="1" />
		<edge from-layer="4188" from-port="2" to-layer="4190" to-port="0" />
		<edge from-layer="4189" from-port="0" to-layer="4190" to-port="1" />
		<edge from-layer="4190" from-port="2" to-layer="4207" to-port="0" />
		<edge from-layer="4191" from-port="2" to-layer="4194" to-port="0" />
		<edge from-layer="4192" from-port="0" to-layer="4193" to-port="0" />
		<edge from-layer="4193" from-port="1" to-layer="4194" to-port="1" />
		<edge from-layer="4194" from-port="2" to-layer="4196" to-port="0" />
		<edge from-layer="4195" from-port="0" to-layer="4196" to-port="1" />
		<edge from-layer="4196" from-port="2" to-layer="4198" to-port="0" />
		<edge from-layer="4197" from-port="0" to-layer="4198" to-port="1" />
		<edge from-layer="4198" from-port="2" to-layer="4207" to-port="1" />
		<edge from-layer="4199" from-port="2" to-layer="4202" to-port="0" />
		<edge from-layer="4200" from-port="0" to-layer="4201" to-port="0" />
		<edge from-layer="4201" from-port="1" to-layer="4202" to-port="1" />
		<edge from-layer="4202" from-port="2" to-layer="4204" to-port="0" />
		<edge from-layer="4203" from-port="0" to-layer="4204" to-port="1" />
		<edge from-layer="4204" from-port="2" to-layer="4206" to-port="0" />
		<edge from-layer="4205" from-port="0" to-layer="4206" to-port="1" />
		<edge from-layer="4206" from-port="2" to-layer="4207" to-port="2" />
		<edge from-layer="4207" from-port="3" to-layer="4209" to-port="0" />
		<edge from-layer="4208" from-port="0" to-layer="4209" to-port="1" />
		<edge from-layer="4209" from-port="2" to-layer="4211" to-port="0" />
		<edge from-layer="4210" from-port="0" to-layer="4211" to-port="1" />
		<edge from-layer="4211" from-port="2" to-layer="4212" to-port="0" />
		<edge from-layer="4212" from-port="2" to-layer="4215" to-port="0" />
		<edge from-layer="4213" from-port="0" to-layer="4214" to-port="0" />
		<edge from-layer="4214" from-port="1" to-layer="4215" to-port="1" />
		<edge from-layer="4215" from-port="2" to-layer="4216" to-port="0" />
		<edge from-layer="4216" from-port="2" to-layer="4228" to-port="1" />
		<edge from-layer="4216" from-port="2" to-layer="4218" to-port="0" />
		<edge from-layer="4217" from-port="0" to-layer="4218" to-port="1" />
		<edge from-layer="4218" from-port="2" to-layer="4219" to-port="0" />
		<edge from-layer="4219" from-port="2" to-layer="4222" to-port="0" />
		<edge from-layer="4220" from-port="0" to-layer="4221" to-port="0" />
		<edge from-layer="4221" from-port="1" to-layer="4222" to-port="1" />
		<edge from-layer="4222" from-port="2" to-layer="4223" to-port="0" />
		<edge from-layer="4223" from-port="1" to-layer="4224" to-port="0" />
		<edge from-layer="4224" from-port="2" to-layer="4227" to-port="0" />
		<edge from-layer="4225" from-port="0" to-layer="4226" to-port="0" />
		<edge from-layer="4226" from-port="1" to-layer="4227" to-port="1" />
		<edge from-layer="4227" from-port="2" to-layer="4228" to-port="0" />
		<edge from-layer="4228" from-port="2" to-layer="4230" to-port="0" />
		<edge from-layer="4229" from-port="0" to-layer="4230" to-port="1" />
		<edge from-layer="4230" from-port="2" to-layer="4240" to-port="0" />
		<edge from-layer="4231" from-port="2" to-layer="4234" to-port="0" />
		<edge from-layer="4232" from-port="0" to-layer="4233" to-port="0" />
		<edge from-layer="4233" from-port="1" to-layer="4234" to-port="1" />
		<edge from-layer="4234" from-port="2" to-layer="4235" to-port="0" />
		<edge from-layer="4235" from-port="4" to-layer="4236" to-port="0" />
		<edge from-layer="4235" from-port="3" to-layer="4241" to-port="0" />
		<edge from-layer="4236" from-port="2" to-layer="4239" to-port="0" />
		<edge from-layer="4237" from-port="0" to-layer="4238" to-port="0" />
		<edge from-layer="4238" from-port="1" to-layer="4239" to-port="1" />
		<edge from-layer="4239" from-port="2" to-layer="4240" to-port="1" />
		<edge from-layer="4240" from-port="2" to-layer="4242" to-port="0" />
		<edge from-layer="4241" from-port="2" to-layer="4242" to-port="1" />
		<edge from-layer="4242" from-port="2" to-layer="4243" to-port="0" />
		<edge from-layer="4243" from-port="2" to-layer="4246" to-port="0" />
		<edge from-layer="4244" from-port="0" to-layer="4245" to-port="0" />
		<edge from-layer="4245" from-port="1" to-layer="4246" to-port="1" />
		<edge from-layer="4246" from-port="2" to-layer="4247" to-port="0" />
		<edge from-layer="4247" from-port="2" to-layer="4250" to-port="0" />
		<edge from-layer="4248" from-port="0" to-layer="4249" to-port="0" />
		<edge from-layer="4249" from-port="1" to-layer="4250" to-port="1" />
		<edge from-layer="4250" from-port="2" to-layer="4251" to-port="0" />
		<edge from-layer="4251" from-port="1" to-layer="4252" to-port="0" />
		<edge from-layer="4252" from-port="2" to-layer="4255" to-port="0" />
		<edge from-layer="4253" from-port="0" to-layer="4254" to-port="0" />
		<edge from-layer="4254" from-port="1" to-layer="4255" to-port="1" />
		<edge from-layer="4255" from-port="2" to-layer="4264" to-port="0" />
		<edge from-layer="4256" from-port="0" to-layer="4257" to-port="0" />
		<edge from-layer="4257" from-port="1" to-layer="4259" to-port="0" />
		<edge from-layer="4258" from-port="0" to-layer="4259" to-port="1" />
		<edge from-layer="4259" from-port="2" to-layer="4260" to-port="1" />
		<edge from-layer="4260" from-port="2" to-layer="4264" to-port="1" />
		<edge from-layer="4261" from-port="0" to-layer="4264" to-port="2" />
		<edge from-layer="4262" from-port="0" to-layer="4264" to-port="3" />
		<edge from-layer="4263" from-port="0" to-layer="4264" to-port="4" />
		<edge from-layer="4264" from-port="5" to-layer="4267" to-port="0" />
		<edge from-layer="4265" from-port="0" to-layer="4266" to-port="0" />
		<edge from-layer="4266" from-port="1" to-layer="4267" to-port="1" />
		<edge from-layer="4267" from-port="2" to-layer="4268" to-port="1" />
		<edge from-layer="4268" from-port="2" to-layer="4269" to-port="0" />
	</edges>
	<rt_info>
		<Runtime_version value="2026.1.0-21367-63e31528c62-releases/2026/1" />
		<conversion_parameters>
			<framework value="pytorch" />
			<is_python_object value="True" />
		</conversion_parameters>
	</rt_info>
</net>
